train-model/intent_model_full_integer.tflite (tflite, 21992 bytes, 3 tensors)

tfl.pseudo_qconst1 i1 [16, 32]
00000000: c006 5c08 3fcc de8b bb2e b3e7 564f 36cd
00000010: 4cfa ee81 e1a5 301b ed9c 1ad6 9af1 41dd
00000020: 5b0f e19a a347 c192 a469 d551 1d53 cc81
00000030: 59ba 5ba5 3db9 a267 fb9a 16b1 0e45 aa47
00000040: ed00 f4c6 1623 baa9 68d4 db0f bffa f70b
00000050: 816f bd09 cf63 d3a0 a9a4 83ea 8744 2934
00000060: 01e5 a927 b9ae 1615 f020 d2bb df19 dc55
00000070: 811b e8a9 ac4d d9a4 bc47 18b9 bd45 423b
00000080: df44 11c2 2781 e7f5 1014 b7ee 86b9 38a7
00000090: 4506 d092 c954 433b c68c 3b4f cb0b 8851
000000a0: dac4 14ef 3dc6 b67a a6ef 17de 3f4a fac1
000000b0: fddd eb66 c681 34bf eb14 b22b 273c fb31
000000c0: eb20 0f9f c981 15ee d739 94f2 4eba 3655
000000d0: 1dab 2202 d01a 5bc7 c105 f803 5fa0 ad4b
000000e0: dbef 9ab0 d5fa 0c1a ab2b 818e ebe1 df0f
000000f0: c3e6 d53c 2382 2cad b6a6 af1d 03af f9c6
-64 6 92 8 63 -52 -34 -117
-69 46 -77 -25 86 79 54 -51
76 -6 -18 -127 -31 -91 48 27
-19 -100 26 -42 -102 -15 65 -35
91 15 -31 -102 -93 71 -63 -110
-92 105 -43 81 29 83 -52 -127
89 -70 91 -91 61 -71 -94 103
-5 -102 22 -79 14 69 -86 71
-19 0 -12 -58 22 35 -70 -87
104 -44 -37 15 -65 -6 -9 11
-127 111 -67 9 -49 99 -45 -96
-87 -92 -125 -22 -121 68 41 52
1 -27 -87 39 -71 -82 22 21
-16 32 -46 -69 -33 25 -36 85
-127 27 -24 -87 -84 77 -39 -92
-68 71 24 -71 -67 69 66 59
-33 68 17 -62 39 -127 -25 -11
16 20 -73 -18 -122 -71 56 -89
69 6 -48 -110 -55 84 67 59
-58 -116 59 79 -53 11 -120 81
-38 -60 20 -17 61 -58 -74 122
-90 -17 23 -34 63 74 -6 -63
-3 -35 -21 102 -58 -127 52 -65
-21 20 -78 43 39 60 -5 49
-21 32 15 -97 -55 -127 21 -18
-41 57 -108 -14 78 -70 54 85
29 -85 34 2 -48 26 91 -57
-63 5 -8 3 95 -96 -83 75
-37 -17 -102 -80 -43 -6 12 26
-85 43 -127 -114 -21 -31 -33 15
-61 -26 -43 60 35 -126 44 -83
-74 -90 -81 29 3 -81 -7 -58

tfl.pseudo_qconst3 i1 [32, 16]
00000000: cbfd 474f 184e 0c4a 8346 8dc5 2081 4423
00000010: 8166 7b72 7831 7930 e731 b511 3cdc f967
00000020: fcae 5f01 4acc 81f6 a345 9e1b 12d7 4931
00000030: 8153 ebab b26e 6612 9f31 0f09 6fb7 4190
00000040: 0ad4 4ace 7f12 4c7e 5a1a 50db de75 f4b6
00000050: f4cf 30be e0c1 49b4 819c 9e7c 0e95 e92a
00000060: 396b 4350 cb9f 2566 0936 b93a 8f7f 0b34
00000070: 39ff d239 1ff2 50fd d87f eb41 6304 06a0
00000080: a008 e3d0 2257 d917 7fa2 cb2a fe2b 6828
00000090: 552f fd23 c09c b2b8 4f95 1181 c3d4 b3d3
000000a0: c20a f915 952d f241 81de 9d65 0e91 1c02
000000b0: 101f 40b2 b21c 811e b2c7 acd4 d4f5 ceb1
000000c0: d3bc f66e 86e8 e477 9662 1db2 5581 c1a5
000000d0: 900b 9744 4282 f512 f207 72b7 9897 d77f
000000e0: f542 d896 3164 a45b 73f3 93ef ef7f aa0d
000000f0: 4aae 11af e781 5d3e 5aa7 3c17 ce5c 4949
-53 -3 71 79 24 78 12 74
-125 70 -115 -59 32 -127 68 35
-127 102 123 114 120 49 121 48
-25 49 -75 17 60 -36 -7 103
-4 -82 95 1 74 -52 -127 -10
-93 69 -98 27 18 -41 73 49
-127 83 -21 -85 -78 110 102 18
-97 49 15 9 111 -73 65 -112
10 -44 74 -50 127 18 76 126
90 26 80 -37 -34 117 -12 -74
-12 -49 48 -66 -32 -63 73 -76
-127 -100 -98 124 14 -107 -23 42
57 107 67 80 -53 -97 37 102
9 54 -71 58 -113 127 11 52
57 -1 -46 57 31 -14 80 -3
-40 127 -21 65 99 4 6 -96
-96 8 -29 -48 34 87 -39 23
127 -94 -53 42 -2 43 104 40
85 47 -3 35 -64 -100 -78 -72
79 -107 17 -127 -61 -44 -77 -45
-62 10 -7 21 -107 45 -14 65
-127 -34 -99 101 14 -111 28 2
16 31 64 -78 -78 28 -127 30
-78 -57 -84 -44 -44 -11 -50 -79
-45 -68 -10 110 -122 -24 -28 119
-106 98 29 -78 85 -127 -63 -91
-112 11 -105 68 66 -126 -11 18
-14 7 114 -73 -104 -105 -41 127
-11 66 -40 -106 49 100 -92 91
115 -13 -109 -17 -17 127 -86 13
74 -82 17 -81 -25 -127 93 62
90 -89 60 23 -50 92 73 73

tfl.pseudo_qconst4 i1 [1000, 16] scale=0.0025905515 zero_point=5
00000000: f3b4 d13c c2e6 f6f8 0101 e704 0ff3 3aca
00000010: 0713 060c 1212 f80b 050c 0e15 fc03 02fe
00000020: cbf9 20eb c125 0d0e ddf3 e936 11be fe0c
00000030: d64d 1fd9 de44 d4db e2cc e71f e4cf f15d
00000040: e37f 50cb 1921 2b45 eda1 c355 b7c9 d17f
00000050: 27ed b660 bac9 4920 dda0 d95c 8011 4ae0
00000060: fb36 c69e 4bec 7feb 6880 047f 804f 7f5b
00000070: 20ff fdee dff7 cfec f2e4 cd06 ab14 1b1e
00000080: 342e f1f4 0fee f820 2bd3 e81c c30f 0604
00000090: 6660 e1ea df71 86ae 64d1 02a0 d219 d721
000000a0: 75e7 0e0f 538c 691f 77fb 5ec2 524f a4aa
000000b0: a874 5cc7 7f6e 6863 56a2 2974 9755 687f
000000c0: f238 c8d9 31e9 4b07 2cc5 0766 a131 6c1c
000000d0: fdb4 1ef1 1500 0839 b86b dd6c 4dd3 33de
000000e0: 60bf 4252 cb09 9fd2 b935 a18f d9c4 b202
000000f0: 44e9 f809 37a4 5e03 4ffc 65b0 374c aeba
-0.046629928 -0.20983467 -0.13470867 0.14248033 -0.17356695 -0.080307096 -0.038858272 -0.03367717
-0.010362206 -0.010362206 -0.077716544 -0.0025905515 0.025905516 -0.046629928 0.13729922 -0.15284254
0.005181103 0.03626772 0.0025905515 0.01813386 0.03367717 0.03367717 -0.03367717 0.015543309
0.0 0.01813386 0.023314964 0.041448824 -0.023314964 -0.005181103 -0.0077716545 -0.01813386
-0.15025198 -0.031086618 0.06994489 -0.06735434 -0.1761575 0.08289765 0.020724412 0.023314964
-0.103622064 -0.046629928 -0.07253544 0.12693702 0.031086618 -0.18392916 -0.01813386 0.01813386
-0.12175592 0.18651971 0.06735434 -0.113984264 -0.10103151 0.16320474 -0.12693702 -0.10880316
-0.090669304 -0.14766143 -0.077716544 0.06735434 -0.0854882 -0.13988978 -0.051811032 0.22796853
-0.08807875 0.31604728 0.19429137 -0.15025198 0.051811032 0.07253544 0.09844096 0.1657953
-0.062173236 -0.25905514 -0.1709764 0.20724413 -0.20206302 -0.15543309 -0.13470867 0.31604728
0.08807875 -0.062173236 -0.20465358 0.23574018 -0.19429137 -0.15543309 0.1761575 0.06994489
-0.103622064 -0.2616457 -0.113984264 0.22537798 -0.34454334 0.031086618 0.17874806 -0.09585041
-0.025905516 0.12693702 -0.16320474 -0.2668268 0.18133861 -0.064763784 0.31604728 -0.06735434
0.2564646 -0.34454334 -0.0025905515 0.31604728 -0.34454334 0.19170082 0.31604728 0.22278742
0.06994489 -0.015543309 -0.020724412 -0.059582684 -0.09844096 -0.03626772 -0.13988978 -0.064763784
-0.04922048 -0.0854882 -0.14507088 0.0025905515 -0.23314963 0.038858272 0.056992132 0.064763784
0.12175592 0.10621261 -0.051811032 -0.044039376 0.025905516 -0.059582684 -0.03367717 0.06994489
0.09844096 -0.12952757 -0.07512599 0.059582684 -0.1709764 0.025905516 0.0025905515 -0.0025905515
0.2512835 0.23574018 -0.093259856 -0.06994489 -0.09844096 0.27977955 -0.32900006 -0.22537798
0.2461024 -0.13470867 -0.0077716545 -0.2616457 -0.13211812 0.051811032 -0.11916537 0.07253544
0.29014176 -0.077716544 0.023314964 0.025905516 0.20206302 -0.31345674 0.25905514 0.06735434
0.29532287 -0.025905516 0.23055908 -0.17356695 0.19947247 0.19170082 -0.2512835 -0.23574018
-0.24092129 0.28755122 0.22537798 -0.16061419 0.31604728 0.2720079 0.2564646 0.24351184
0.20983467 -0.2564646 0.093259856 0.28755122 -0.28496066 0.20724413 0.2564646 0.31604728
-0.04922048 0.13211812 -0.15802364 -0.113984264 0.113984264 -0.07253544 0.18133861 0.005181103
0.10103151 -0.1657953 0.005181103 0.2512835 -0.25905514 0.113984264 0.2668268 0.059582684
-0.020724412 -0.20983467 0.064763784 -0.051811032 0.041448824 -0.012952758 0.0077716545 0.13470867
-0.19947247 0.26423624 -0.103622064 0.2668268 0.18651971 -0.12952757 0.11916537 -0.10103151
0.23574018 -0.18133861 0.15802364 0.19947247 -0.15025198 0.010362206 -0.26423624 -0.13211812
-0.19688192 0.12434647 -0.25905514 -0.30568507 -0.113984264 -0.16838585 -0.21501577 -0.0077716545
0.16320474 -0.07253544 -0.03367717 0.010362206 0.12952757 -0.2512835 0.23055908 -0.005181103
0.19170082 -0.023314964 0.24869294 -0.22019687 0.12952757 0.18392916 -0.22537798 -0.19429137
