train-model/intent_model_float16.tflite (tflite, 37856 bytes, 5 tensors)

arith.constant3 f2 [16]
000000 7d 92 6a a4 fc a9 9c a8 e4 9a e9 26 bb a2 e9 23
       -0.000792 -0.01724 -0.04675 -0.036 -0.003365 0.027 -0.013145 0.01545
000010 f5 26 0b 26 ce 28 ad 18 2c 16 85 21 35 a8 bf a8
       0.02718 0.0236 0.03754 0.002283 0.001507 0.01078 -0.03287 -0.03708

arith.constant4 f2 [32]
000000 ad 24 90 9d 1a 24 50 28 56 a8 39 2a f3 a8 d2 20
       0.01826 -0.005432 0.01602 0.0337 -0.03387 0.0486 -0.03867 0.009415
000010 50 29 18 2c 3c 29 b0 29 f9 28 98 a4 57 a0 52 29
       0.0415 0.06396 0.0409 0.04443 0.03885 -0.01794 -0.00848 0.04156
000020 df 23 17 2b 12 22 82 28 36 27 7a 2b 7b 28 04 14
       0.01537 0.0554 0.011856 0.03522 0.02817 0.0584 0.035 0.00098
000030 0f 2b 93 25 22 a1 8c 28 ed 21 42 27 91 2a 00 00
       0.05515 0.02177 -0.010025 0.03552 0.01157 0.02835 0.0513 0.0

arith.constant5 f2 [1000, 16]
000000 fa a9 b2 b2 48 b0 97 30 8c b1 14 ad 03 a9 35 a8
       -0.0467 -0.2092 -0.1338 0.1434 -0.1733 -0.07935 -0.03915 -0.03287
000010 59 a1 dd a1 03 ad 98 9b 67 26 03 aa 6e 30 de b0
       -0.010445 -0.01145 -0.0783 -0.003708 0.02501 -0.04697 0.1384 -0.1521
000020 47 1c 96 28 99 18 b8 24 53 28 5d 28 4f a8 ab 23
       0.004177 0.03583 0.002245 0.01843 0.03378 0.0341 -0.03366 0.01498
000030 3d 94 80 24 f2 25 5b 29 f1 a5 95 9d 53 9f 8a a4
       -0.001035 0.01758 0.02322 0.04184 -0.02321 -0.00545 -0.007153 -0.01773
000040 d5 b0 af a7 72 2c 5c ac 9f b1 54 2d 0b 25 d8 25
       -0.151 -0.03001 0.06946 -0.0681 -0.1757 0.08325 0.0197 0.02283
000050 8f ae d4 a9 9e ac 0b 30 ab 27 df b1 d0 a4 63 24
       -0.1025 -0.04553 -0.07214 0.1263 0.02995 -0.1835 -0.0188 0.01714
000060 b9 af f6 31 4d 2c 59 af 6f ae 41 31 0f b0 04 af
       -0.12067 0.1863 0.0672 -0.1148 -0.1005 0.1642 -0.1268 -0.1096
000070 d9 ad b0 b0 e9 ac 51 2c 7a ad 75 b0 7f aa 53 33
       -0.0914 -0.1465 -0.0767 0.06744 -0.0856 -0.1393 -0.05075 0.2289
000080 9d ad ca 35 3d 32 cc b0 ad 2a b5 2c 50 2e 48 31
       -0.0877 0.3618 0.195 -0.1499 0.05215 0.07355 0.09863 0.165
000090 07 ac 27 b4 7c b1 9d 32 7d b2 f1 b0 52 b0 bd 35
       -0.0629 -0.2595 -0.1714 0.2067 -0.2028 -0.1544 -0.135 0.3586
0000a0 94 2d ea ab 8d b2 95 33 2f b2 f9 b0 a6 31 72 2c
       0.08716 -0.06183 -0.2047 0.2369 -0.1932 -0.1554 0.1765 0.06946
0000b0 9f ae 2e b4 50 af 36 33 81 b5 ec 27 b9 31 0e ae
       -0.10345 -0.2612 -0.11426 0.2253 -0.344 0.03094 0.1788 -0.0946
0000c0 d5 a6 08 30 31 b1 40 b4 ca 31 15 ac 26 35 5a ac
       -0.02669 0.126 -0.1622 -0.2656 0.1809 -0.0638 0.3218 -0.068
0000d0 1a 34 4e b6 11 96 a5 35 a0 b5 2a 32 5d 35 25 33
       0.2563 -0.394 -0.001481 0.3528 -0.3516 0.1926 0.3352 0.2233
0000e0 7e 2c 4d a3 4b a5 ac ab 39 ae 8d a8 7d b0 2b ac
       0.0702 -0.01426 -0.02068 -0.05994 -0.0972 -0.03555 -0.1403 -0.0651
0000f0 6b aa 7f ad a9 b0 b2 19 78 b3 d0 28 76 2b 27 2c
       -0.05014 -0.0859 -0.1456 0.00278 -0.2334 0.0376 0.0583 0.0649
000100 cc 2f cb 2e c4 aa 81 a9 5c 26 a3 ab 56 a8 79 2c
       0.1218 0.10614 -0.05286 -0.043 0.02484 -0.05966 -0.03387 0.0699
000110 48 2e 2d b0 dc ac b6 2b 81 b1 db 26 b4 16 06 9b
       0.09814 -0.1305 -0.0759 0.06024 -0.172 0.02678 0.0016365 -0.00343
000120 06 34 86 33 ff ad 81 ac 52 ae 77 34 46 b5 34 b3
       0.2515 0.2351 -0.0937 -0.0704 -0.09875 0.279 -0.3296 -0.2251
000130 e6 33 4a b0 a4 a0 30 b4 31 b0 7e 2a 8d af 98 2c
       0.2468 -0.134 -0.00906 -0.2617 -0.131 0.05072 -0.118 0.0718
000140 a6 34 ea ac d6 25 f5 26 7e 32 03 b5 2a 34 3d 2c
       0.2905 -0.0768 0.0228 0.02718 0.2029 -0.3132 0.2603 0.0662
000150 b5 34 5d a6 5d 33 84 b1 65 32 28 32 02 b4 86 b3
       0.2942 -0.02486 0.2301 -0.1724 0.1998 0.1924 -0.2505 -0.2351
000160 ac b3 9a 34 32 33 1d b1 11 35 5d 34 1c 34 cc 33
       -0.2397 0.2876 0.2249 -0.1598 0.3167 0.2727 0.2568 0.2437
000170 b5 32 16 b4 e6 2d 9e 34 8d b4 99 32 19 34 0e 35
       0.2096 -0.2554 0.09216 0.2886 -0.2844 0.2062 0.256 0.316
000180 5d aa 41 30 06 b1 44 af 4f 2f 96 ac c6 31 92 1c
       -0.0497 0.1329 -0.157 -0.1135 0.1142 -0.07166 0.1804 0.004463
000190 66 2e 50 b1 12 1e 02 34 2a b4 46 2f 46 34 7e 2b
       0.1 -0.166 0.005928 0.2505 -0.2603 0.11365 0.267 0.05853
0001a0 67 a5 bb b2 13 2c 9c aa 32 29 5f a2 01 20 56 30
       -0.0211 -0.2103 0.06366 -0.05164 0.0406 -0.01244 0.00782 0.1355
0001b0 69 b2 3e 34 8d ae 42 34 fb 31 27 b0 a4 2f 63 ae
       -0.2003 0.2651 -0.10236 0.266 0.1869 -0.1298 0.1194 -0.0998
0001c0 90 33 cc b1 0f 31 64 32 d9 b0 47 21 3d b4 3a b0
       0.2363 -0.1812 0.1581 0.1997 -0.1515 0.01031 -0.265 -0.1321
0001d0 56 b2 f3 2f 29 b4 e2 b4 40 af 60 b1 d8 b2 c8 9f
       -0.198 0.1242 -0.26 -0.3052 -0.1133 -0.168 -0.2139 -0.0076
0001e0 37 31 b7 ac 3c a8 58 21 28 30 04 b4 67 33 e1 9d
       0.163 -0.07367 -0.03308 0.01044 0.1299 -0.251 0.2313 -0.00574
0001f0 28 32 df a5 ff 33 07 b3 1d 30 db 31 32 b3 39 b2
       0.1924 -0.02293 0.2499 -0.2196 0.1285 0.183 -0.2249 -0.1945

arith.constant6 f2 [32, 16]
000000 3f b1 81 a1 f7 32 c4 33 b0 2c b2 33 9d 28 52 33
       -0.164 -0.01075 0.2177 0.2427 0.07324 0.2405 0.03604 0.2288
000010 21 b6 d8 32 a1 b5 cb b1 45 2e 3f b6 b2 32 dd 2e
       -0.383 0.2139 -0.3518 -0.181 0.09796 -0.3904 0.2092 0.10724
000020 dc b4 d8 33 b2 34 61 34 96 34 72 2f a4 34 49 2f
       -0.3037 0.2451 0.2935 0.2737 0.2866 0.11633 0.29 0.11383
000030 98 ab 82 2f b8 b1 4c 29 a0 30 7e ad 2d a4 da 33
       -0.05933 0.1173 -0.1787 0.04138 0.1445 -0.0858 -0.01631 0.2454
000040 19 a3 c5 b4 8e 35 1d 1b 50 34 0f b2 69 b7 88 a8
       -0.01386 -0.298 0.3472 0.003473 0.2695 -0.1893 -0.4631 -0.0354
000050 6c b5 02 34 b4 b5 50 2e 1c 2c d6 b0 46 34 ab 31
       -0.3389 0.2505 -0.3564 0.09863 0.0642 -0.1511 0.267 0.1771
000060 e7 b5 b2 33 e3 ab e0 b3 36 b3 1d 35 c2 34 9b 2a
       -0.369 0.2405 -0.0616 -0.2461 -0.2253 0.3196 0.2974 0.0516
000070 7e b4 86 30 7a 29 c4 26 2e 35 c6 b2 12 32 2f b5
       -0.2808 0.1414 0.0428 0.02643 0.3237 -0.2117 0.1897 -0.324
000080 78 27 00 b0 be 32 7d b0 c2 35 a6 2a e0 32 b3 35
       0.02917 -0.125 0.2107 -0.1403 0.3599 0.05194 0.2148 0.3562
000090 14 34 b5 2c 43 33 ca ae 3e ae 49 35 5a a8 af b2
       0.255 0.07355 0.2269 -0.1061 -0.09753 0.3303 -0.034 -0.2089
0000a0 f0 a9 2f b2 16 32 22 b4 05 b0 ee b3 94 34 cf b4
       -0.0464 -0.1932 0.1902 -0.2583 -0.1256 -0.2478 0.2861 -0.3005
0000b0 fd b7 49 b6 2f b6 d3 37 03 2b bd b6 ab ad 59 31
       -0.4993 -0.3928 -0.3865 0.489 0.05478 -0.4211 -0.08856 0.1671
0000c0 cb 30 7b 34 a3 31 be 32 7c b0 18 b4 3d 2e 4b 34
       0.1498 0.28 0.1761 0.2107 -0.1401 -0.2559 0.0975 0.2683
0000d0 ff 25 80 30 f6 b1 d6 30 c2 b4 57 35 7c 27 5c 30
       0.02342 0.1406 -0.1863 0.1511 -0.2974 0.3337 0.02924 0.1362
0000e0 72 32 64 98 36 b1 6c 32 ef 2e 7d aa 7e 34 49 a2
       0.2014 -0.002144 -0.1628 0.2007 0.10834 -0.0507 0.2808 -0.012276
0000f0 7b b0 24 37 ba ac 53 33 8b 35 07 23 b3 25 61 b5
       -0.14 0.4463 -0.07385 0.2289 0.3464 0.013725 0.02226 -0.3362
000100 48 b5 61 27 77 ae 54 b1 79 2f d4 34 5a b0 0b 2d
       -0.33 0.02882 -0.101 -0.1665 0.11676 0.3018 -0.136 0.0788
000110 02 37 2e b5 d2 b1 aa 30 55 9e b3 30 b8 35 76 30
       0.438 -0.3237 -0.1819 0.1458 -0.006184 0.1469 0.3574 0.1394
000120 55 35 e2 31 97 a2 67 30 00 b4 43 b6 e0 b4 7e b4
       0.3333 0.1838 -0.01287 0.1376 -0.25 -0.3914 -0.3047 -0.2808
000130 ef 34 b3 b6 48 2c f2 b7 a4 b3 7b b1 d0 b4 a9 b1
       0.3083 -0.4187 0.0669 -0.4966 -0.2388 -0.1713 -0.3008 -0.1769
000140 df b3 3f 29 72 a7 73 2d d0 b6 b7 31 30 ab 25 34
       -0.246 0.041 -0.02908 0.08514 -0.4258 0.1786 -0.05615 0.259
000150 0e b8 57 b0 59 b6 6c 36 18 2b 14 b7 06 2f 5d 1f
       -0.507 -0.1356 -0.3967 0.4014 0.05542 -0.4424 0.10974 0.00719
000160 f1 2b b2 2f f0 33 d7 b4 d0 b4 00 2f da b7 4c 2f
       0.06204 0.12024 0.248 -0.3025 -0.3008 0.1094 -0.4907 0.114
000170 d7 b4 0e b3 31 b5 76 b1 70 b1 9b a9 29 b2 e1 b4
       -0.3025 -0.2205 -0.3245 -0.1707 -0.1699 -0.0438 -0.1925 -0.305
000180 85 b1 2f b4 28 a9 cf 36 8f b7 e2 ad dd ae 56 37
       -0.1725 -0.2615 -0.04028 0.4255 -0.4724 -0.0919 -0.10724 0.4585
000190 89 b6 0e 36 20 2f cd b4 47 35 d7 b7 bb b3 9a b5
       -0.4084 0.3784 0.1113 -0.3 0.3298 -0.49 -0.2416 -0.35
0001a0 85 b4 cd 26 3a b4 75 31 55 31 14 b5 fc a6 d9 29
       -0.2825 0.02657 -0.2642 0.1705 0.1666 -0.3174 -0.02728 0.0457
0001b0 8b a8 d8 24 9c 34 e9 b1 32 b4 3c b4 b2 ae 21 35
       -0.0355 0.01892 0.288 -0.1847 -0.2622 -0.2646 -0.1046 0.3206
0001c0 01 a8 d4 31 15 af ad b4 56 30 6b 34 0e b4 0c 34
       -0.03128 0.1821 -0.11066 -0.2922 0.1355 0.2761 -0.2534 0.253
0001d0 13 35 9f a8 d5 b4 07 aa 13 aa 9f 35 98 b3 74 28
       0.3171 -0.0361 -0.302 -0.0471 -0.04745 0.3513 -0.2373 0.0348
0001e0 7a 34 f3 b4 30 2c e6 b4 fd ad ac b7 a5 35 88 33
       0.2798 -0.3093 0.0654 -0.3062 -0.09357 -0.4795 0.3528 0.2354
0001f0 6f 35 64 b5 46 33 71 2d 01 b2 95 35 69 34 69 34
       0.3396 -0.337 0.2273 0.085 -0.1876 0.3489 0.2756 0.2756

arith.constant7 f2 [16, 32]
000000 bf b3 45 26 91 35 93 27 af 33 54 b2 2c b0 1f b7
       -0.2421 0.02449 0.348 0.02959 0.2401 -0.1978 -0.1304 -0.445
000010 28 b4 8f 31 b3 b4 27 ae 39 35 cd 34 96 32 29 b2
       -0.2598 0.1737 -0.2937 -0.0961 0.3264 0.3 0.2058 -0.1925
000020 a3 34 b5 a5 47 ac b4 b7 9b af 8b b5 cc 31 89 2e
       0.2898 -0.0223 -0.06683 -0.4814 -0.11884 -0.3464 0.1812 0.1021
000030 8f ac 0d b6 5b 2e 1e b1 35 b6 56 ab ef 33 3f b0
       -0.0712 -0.3782 0.0993 -0.1599 -0.388 -0.0573 0.2479 -0.1327
000040 9d 35 8f 2b cc af 4e b6 c4 b5 66 34 be b3 d5 b6
       0.3508 0.05905 -0.1218 -0.394 -0.3604 0.275 -0.242 -0.427
000050 ab b5 7b 36 55 b1 07 35 25 2f 23 35 64 b2 dc b7
       -0.3542 0.405 -0.1666 0.3142 0.11163 0.321 -0.1997 -0.4912
000060 7d 35 5a b4 a4 35 9d b5 90 33 64 b4 d1 b5 5e 36
       0.343 -0.272 0.3525 -0.3508 0.2363 -0.2744 -0.3635 0.398
000070 47 a5 54 b6 8c 2d e9 b4 19 2b 3e 34 4b b5 6c 34
       -0.02061 -0.3955 0.0867 -0.307 0.05545 0.2651 -0.3308 0.2764
000080 37 ad 27 96 76 aa f9 b3 f7 2d c7 30 cf b4 fb b5
       -0.0815 -0.001502 -0.05048 -0.2491 0.0932 0.1493 -0.3005 -0.3738
000090 27 37 0d b2 1a b1 37 2c 7e b4 8e a6 ee a8 39 2a
       0.447 -0.1891 -0.1594 0.06586 -0.2808 -0.0256 -0.0385 0.0486
0000a0 5c b8 a4 37 99 b4 d5 28 bc b2 d0 36 21 b2 96 b6
       -0.545 0.4775 -0.2874 0.03775 -0.2104 0.4258 -0.1915 -0.4116
0000b0 ff b5 56 b6 49 b8 eb ad 2b b8 a9 34 9e 31 32 33
       -0.3748 -0.396 -0.5356 -0.09247 -0.521 0.2913 0.1755 0.2249
0000c0 9c 1a 54 af ee b5 57 31 e1 b4 9f b5 22 2e 9b 2d
       0.003227 -0.1145 -0.3706 0.1669 -0.305 -0.3513 0.0958 0.0876
0000d0 66 ac 4c 30 46 b2 b3 b4 6f b0 dc 2e f3 b0 c7 35
       -0.0687 0.1343 -0.196 -0.2937 -0.1385 0.1072 -0.1547 0.361
0000e0 55 b8 6b 2f 89 ae f3 b5 c1 b5 40 35 46 b1 44 b6
       -0.5415 0.1159 -0.1021 -0.3718 -0.3596 0.3281 -0.1648 -0.3916
0000f0 a5 b4 cf 34 ac 2e d0 b4 95 b4 b2 34 87 34 0c 34
       -0.2903 0.3005 0.10425 -0.3008 -0.2864 0.2935 0.283 0.253
000100 23 b0 44 34 53 2c b4 b3 f1 30 f3 b7 2c ae 63 a9
       -0.1293 0.2666 0.06757 -0.2407 0.1544 -0.4968 -0.09644 -0.04208
000110 c7 2b fb 2c 98 b4 73 ac 9d b7 7a b4 12 33 97 b5
       0.06076 0.0778 -0.287 -0.0695 -0.4758 -0.2798 0.221 -0.3494
000120 4a 34 2d 26 f9 b1 e6 b6 d9 b2 46 35 33 34 62 33
       0.268 0.02412 -0.1866 -0.4312 -0.214 0.3296 0.2625 0.2307
000130 38 b3 40 b7 59 33 ea 34 9e b2 b4 29 86 b7 17 35
       -0.2256 -0.4531 0.2296 0.3071 -0.2068 0.04456 -0.4702 0.318
000140 e8 b0 b8 b3 3d 2d 48 ac c0 33 67 b3 b9 b4 c7 37
       -0.1533 -0.2412 0.08185 -0.0669 0.2422 -0.2313 -0.2952 0.486
000150 c8 b5 52 ac f9 2d 56 b0 04 34 c1 34 b2 a5 09 b4
       -0.3613 -0.0675 0.0933 -0.1355 0.251 0.297 -0.02225 -0.2522
000160 20 a1 7c b0 66 ad 7f 36 61 b3 0f b8 ae 32 27 b4
       -0.01001 -0.1401 -0.08435 0.406 -0.2306 -0.5073 0.2087 -0.2595
000170 66 ad 22 2d f7 b4 72 31 f8 30 a1 33 1a a5 4f 32
       -0.08435 0.0802 -0.3103 0.1702 0.1553 0.2384 -0.01993 0.1971
000180 0b ae 78 30 30 2c d6 b6 b3 b3 7b b8 dd 2d f6 ac
       -0.0944 0.1396 0.0654 -0.4272 -0.2406 -0.56 0.0916 -0.0775
000190 ca b1 02 34 a7 b7 ce ab 7a 35 ef b4 90 33 03 36
       -0.1809 0.2505 -0.4783 -0.06097 0.3423 -0.3083 0.2363 0.3757
0001a0 0e 30 06 b6 dc 30 27 20 b6 b2 69 2f 64 36 0b b4
       0.1267 -0.3765 0.1519 0.00811 -0.2097 0.1158 0.3994 -0.2527
0001b0 69 b4 f9 25 c5 a8 b4 22 bc 36 cd b6 dd b5 44 35
       -0.2756 0.02333 -0.03726 0.01309 0.421 -0.425 -0.3665 0.329
0001c0 09 b1 9b ac e5 b6 6a b5 e5 b1 c0 a6 5a 2a 2a 2f
       -0.1573 -0.07196 -0.431 -0.3384 -0.1842 -0.02637 0.04962 0.11194
0001d0 cb b5 e5 31 4e b8 bc b7 a9 ad 3a b0 7a b0 ff 2b
       -0.362 0.1842 -0.538 -0.4834 -0.08844 -0.1321 -0.1399 0.06247
0001e0 27 b4 ec ae ce b1 0e 34 b4 30 48 b8 f8 31 a6 b5
       -0.2595 -0.10815 -0.1814 0.2534 0.147 -0.535 0.1865 -0.353
0001f0 01 b5 21 b6 81 b5 ba 2f 56 23 77 b5 53 a7 ed b3
       -0.3127 -0.383 -0.344 0.1207 0.01433 -0.3416 -0.02861 -0.2477
