train-model/intent_model_dynamic_quant.tflite (tflite, 21496 bytes, 5 tensors)

arith.constant3 f4 [16]
000000 68 0e 38 bc a4 2c 4f 3b 01 33 91 bd 35 3e 8a bd
       -0.0112339035 0.0031612301 -0.07089806 -0.06750146
000010 77 38 97 bc 15 74 2d 3d bd 31 7a 3c 52 6e 03 3b
       -0.018459542 0.042347033 0.015270648 0.002005477
000020 60 a3 46 3d 6f c2 ac 3c 25 96 4f 3d 7f 0e 80 bc
       0.04849565 0.021088807 0.0506803 -0.015631912
000030 b9 a8 ef 3c 63 99 93 bc c6 b1 2f bd 2c 52 00 bc
       0.029255258 -0.018017476 -0.042894147 -0.007832091

arith.constant4 f4 [16]
000000 5f 0d 53 3d c2 fe ce 3c 2b 83 72 3d 82 8b d1 3c
       0.051526424 0.025267962 0.059207123 0.025579218
000010 96 85 57 3d da a7 d7 3c 5c 3f 01 3d 18 fb 53 3d
       0.05261763 0.026325155 0.031554565 0.051753134
000020 34 04 93 3d d8 3e a0 3c ab ad e4 3c e3 af 9a 3c
       0.07178536 0.019561216 0.027914843 0.018882697
000030 99 1c 06 3d bd 9b 14 3d 0a d3 c2 3c 82 cb fe bc
       0.032742117 0.036281336 0.023782272 -0.0311029

arith.constant5 f4 [16, 16]
000000 6d b8 a7 be 71 e2 74 3e 81 01 6b 3e 99 b4 40 3e
       -0.32757893 0.23914506 0.22949792 0.18818893
000010 24 7a ee bd 88 23 ab 3e 00 e9 74 be 81 8b 0d bf
       -0.1164439 0.33425546 -0.23917007 -0.5529099
000020 dd 82 b3 be 56 bb df bd 6d 4f 2f bd 2b 8a a1 be
       -0.35060778 -0.10924403 -0.042800356 -0.31550726
000030 15 e8 e9 3e b8 01 09 bf a1 4b 6c 3e 8b 53 d4 ba
       0.45684877 -0.5351825 0.23075725 -0.0016199214
000040 c2 5b 7b 3e e5 01 ff be 7e 98 cd be cd 4d d7 be
       0.24546722 -0.49806133 -0.40155405 -0.42051545
000050 24 08 e4 be 22 11 8a be 83 f0 8c 3e 4e b2 d9 3e
       -0.4453746 -0.26966196 0.27527246 0.42518848
000060 3c 48 cd 3e 57 6c 85 be 9d 85 cb be ff cd ac be
       0.40094173 -0.2605922 -0.39750376 -0.33750913
000070 37 45 63 3d 99 20 f2 3e 89 32 e7 bd 43 14 92 be
       0.05548593 0.47290495 -0.11288936 -0.28531083
000080 9d ae e6 3d 61 28 2d 3e 9d 51 7f be 99 59 17 bf
       0.112637736 0.16909935 -0.24933477 -0.5912109
000090 43 20 6e 3e 37 a1 0f 3e 2b 32 1a 3e 89 a1 a2 be
       0.23254494 0.14026342 0.150582 -0.31763867
0000a0 77 de 6a 3c 7a 2f 1a 3d d7 97 a7 3c 12 ff a5 3e
       0.014335266 0.037642933 0.020458145 0.32421166
0000b0 27 30 a0 3e 49 9a 71 be 98 36 c1 3e 0d 47 6c be
       0.31286737 -0.23594011 0.37736964 -0.23073979
0000c0 f1 f0 16 be 6d 35 90 3e 24 e4 51 3e 0a 29 c5 3d
       -0.1474035 0.2816576 0.20497185 0.09626968
0000d0 a3 6f 98 3e 99 0a ac 3e ca a9 63 3e 31 e8 f2 3d
       0.29772672 0.33601835 0.22232738 0.11860693
0000e0 a2 8b dd be c4 37 5b be 73 3b 27 bd 85 61 3e bd
       -0.43270594 -0.21407992 -0.04082818 -0.04647972
0000f0 fe da 75 be 30 3d e6 bd dd a7 61 be f9 40 4b be
       -0.2400932 -0.11242139 -0.22036691 -0.19849004
000100 18 99 94 3e f9 6b df 3d 0d a4 41 be e2 9a 89 bd
       0.2902305 0.10909266 -0.18910237 -0.06718995
000110 21 e5 4d 3e f2 6f 7a 3e 5b d1 38 be 26 44 22 3e
       0.20106937 0.24456766 -0.18048613 0.15846309
000120 25 f3 c1 bd db 10 00 3f 87 52 45 be ad ea d5 3e
       -0.09470204 0.5002572 -0.19269763 0.41780606
000130 93 43 16 3d 7f ac 91 3e d1 96 10 be 1b 62 b1 bc
       0.036685538 0.28451917 -0.14120032 -0.021653226
000140 2c 7d f1 3e 19 bf fa bd 67 78 dd 3e 74 d2 ca 3e
       0.4716581 -0.1224348 0.43255922 0.39613688
000150 21 fd e1 be bf 57 e7 3e d7 97 0f bf 0b d6 2f 3d
       -0.44138435 0.45184132 -0.56091064 0.042928737
000160 0a 17 4a be 02 5b 10 bf 08 ba 80 3b ee f6 9a be
       -0.19735351 -0.56388867 0.0039284267 -0.30266517
000170 c1 9b 62 be 9e 4c 33 3e 68 a4 e5 be 8d 2c a1 be
       -0.22129728 0.17509696 -0.44851995 -0.31479302
000180 d9 2f 01 bf 93 ec cc be c8 83 fd bd ca cd b6 be
       -0.50463635 -0.40024242 -0.12378651 -0.3570388
000190 58 e6 1c bf 57 61 f6 be 66 b2 10 3f 2e ca ee 3d
       -0.61288977 -0.4812114 0.56522214 0.116596565
0001a0 37 3a 5a 3e e6 62 c6 3e 3a f8 ac be d7 99 4f be
       0.2131127 0.3874733 -0.33783132 -0.20273529
0001b0 01 75 e0 be c9 ee ec be 62 98 a7 be d5 05 16 be
       -0.43839267 -0.4627593 -0.32733446 -0.14650662
0001c0 87 e6 f2 3e 63 6d ab be 0a 9f 10 bd e8 10 58 be
       0.47441503 -0.33481893 -0.03530792 -0.21100199
0001d0 3a 52 af be f3 b9 11 bf e9 56 55 bd 7b ec 07 3f
       -0.3424242 -0.5692436 -0.052084837 0.53095216
0001e0 94 0f 01 3f f6 d4 0a 3f b2 12 ab be e4 8d f3 be
       0.50414395 0.542312 -0.334127 -0.4756919
0001f0 f7 73 7c be 57 21 12 bf 48 7e bd 3e b8 66 bf be
       -0.24653612 -0.5708212 0.37010407 -0.37383056
000200 5c 27 76 3e 9d 13 7b be 01 45 cd 3c 8a 82 d8 bc
       0.24038452 -0.245192 0.025057318 -0.026429433
000210 2f 58 c1 bd fe af b9 bb 06 04 0d be 77 38 f3 be
       -0.09440648 -0.005666732 -0.13771066 -0.47504017
000220 a5 9d 40 be 87 37 ad 3e 36 e8 0a bf aa cf 53 be
       -0.18810137 0.33831427 -0.54260576 -0.20684686
000230 e5 80 e1 be 10 37 d8 3e 4d 8b cf 3c 56 88 4f be
       -0.4404365 0.4222951 0.025334978 -0.20266852
000240 40 7e 36 3e 4e 78 a9 be 7b 77 d9 3e fd a0 fd ba
       0.17821598 -0.33099598 0.4247397 -0.0019350346
000250 b4 11 1a 3c 02 4d 8e be 3b dd 68 3e fd 9c 43 3e
       0.009403635 -0.27793127 0.22740643 0.19102855
000260 53 7d 36 3e c2 26 36 3d b2 8e 29 3e 60 ac c2 3e
       0.17821245 0.044470556 0.1655834 0.38022137
000270 dd 5d 0b 3f a9 aa ae be 4b 3f 0b bd df bc 7d bd
       0.544401 -0.34114578 -0.033995908 -0.0619477
000280 67 c2 0a bf 3e e5 b1 3e 68 be 7f 3e 69 dc 8a be
       -0.54202884 0.3474521 0.24974978 -0.27121285
000290 f4 45 07 3e 94 a3 95 3c f1 cb 27 3e 4a 66 7e be
       0.13210279 0.018266477 0.16386391 -0.24843708
0002a0 b1 0d fc be 37 0e cd bd de 0f 5e bd b8 7c 42 be
       -0.49229196 -0.10012477 -0.05421435 -0.18992889
0002b0 10 46 9e 3e 04 bc 1d 3d 35 45 0c 3f 4f 05 74 be
       0.30912828 0.038509384 0.547931 -0.2383015
0002c0 09 9e e2 3e b4 ef 9f bd 1b 58 dc bc 64 48 91 be
       0.44261196 -0.078093916 -0.02689748 -0.28375542
0002d0 79 32 23 3e 9e 67 a2 3e aa 8b ad be be ef a7 3d
       0.15937223 0.3171968 -0.33895618 0.08200024
0002e0 9d 5c ce be 33 d3 72 bd 36 01 1a bf 81 bf 43 3e
       -0.40305033 -0.059283447 -0.601581 0.19116022
0002f0 e6 1d 8d 3e b5 65 a2 be c2 36 c9 3e aa b2 c9 3e
       0.27561873 -0.3171822 0.3929959 0.39394122
000300 3a 7b 6b 3e e2 24 d0 3e 90 46 23 be 03 e1 00 be
       0.22996226 0.4065314 -0.15944886 -0.12585835
000310 00 00 35 3b 55 59 12 be e3 1f ce 3e 78 20 11 be
       0.0027618408 -0.1429189 0.40258703 -0.14172542
000320 82 f2 db 3e 34 43 3a 3e 1e cd 47 3e 1c 86 00 bf
       0.42958456 0.18189698 0.1951184 -0.50204635
000330 98 6d 79 3d 53 90 02 bf d9 15 08 bf 53 5f 80 be
       0.060895532 -0.5100147 -0.53158337 -0.25072727
000340 0f 36 ba be 61 01 b5 be 28 5d cc bd 37 df d5 be
       -0.36369368 -0.35352615 -0.09978706 -0.41771862
000350 47 e9 c0 3e e6 16 29 3e 8b 70 35 bc 89 2f 4b be
       0.37677976 0.16512641 -0.011074196 -0.19842352
000360 b1 de 39 3e f3 34 6b 3e 41 29 ae 3e 39 53 e3 bd
       0.18151356 0.22969417 0.3401585 -0.11099858
000370 9e 16 72 be 2f cc c5 3e 9f c8 dc be 13 e3 36 be
       -0.2364144 0.38632342 -0.43121812 -0.1786006
000380 34 1e 77 be 53 55 fe 3d db 54 e1 be 0e 75 08 bd
       -0.24132615 0.12418618 -0.44010052 -0.033314757
000390 e9 6e e9 bb 42 a4 03 bf 8a be ff 3d b9 fd 10 bf
       -0.007123817 -0.5142251 0.12487514 -0.5663715
0003a0 66 60 1e bf 00 e0 14 bf 4f 61 01 3e 27 7e b6 3e
       -0.6186584 -0.58154297 0.12634777 0.35643122
0003b0 39 55 bf 3e 41 25 38 bd 27 d2 13 bf 1b 9f 28 3e
       0.37369707 -0.044957403 -0.5774254 0.16466944
0003c0 9f ba e0 bd f7 9f fd bc 72 fb ca 3c d2 2a 88 be
       -0.10973095 -0.030960066 0.024778102 -0.2659517
0003d0 e4 76 1d 3e 4a a7 c9 3d 46 fb ba bc 5a b0 11 be
       0.15377384 0.09846361 -0.022824895 -0.14227429
0003e0 ef d3 01 bf 9a a0 81 be 2a 05 00 3f 09 e8 cd 3e
       -0.5071401 -0.25317842 0.5000788 0.4021609
0003f0 6f 1d 63 be 68 b8 87 be 79 5e 02 bf 44 a1 23 be
       -0.22179197 -0.26507878 -0.50925404 -0.15979487

arith.constant6 f4 [16, 16]
000000 f0 99 10 bf 36 00 a4 3e c5 c3 c6 be 23 da 84 be
       -0.5648489 0.3203141 -0.38821235 -0.25947675
000010 23 33 b6 be f1 c5 e7 be f1 fe b1 3e f3 e8 af be
       -0.3558589 -0.45268205 0.34764817 -0.34357414
000020 34 0d eb be ec 38 ff 3e 90 8a ac be 98 9b 94 3c
       -0.4590851 0.49848115 -0.33699465 0.0181406
000030 36 2d 2b be 30 23 ae be b7 db cd be e5 38 c4 be
       -0.16716465 -0.3401122 -0.40206692 -0.38324657
000040 77 2f 1a 3e 74 e7 fc 3e 8c 5a 2e be 96 16 8a 3e
       0.15057169 0.49395335 -0.17026728 0.26970357
000050 2b d7 11 bf 1a 95 01 be f5 82 6c bd 52 c7 b8 be
       -0.56968945 -0.12654534 -0.057742078 -0.3608957
000060 83 68 d2 3e 1a 02 c8 be e6 ee c3 3e 0f 03 cf 3e
       0.4109536 -0.39064103 0.38268203 0.4043202
000070 b5 27 af be 70 b8 da 38 23 cc 4f be 12 04 c7 3e
       -0.34209982 0.00010429404 -0.20292716 0.38870293
000080 f3 68 c2 be 0a 3e 04 bf 79 26 64 bc b0 2d d7 3c
       -0.37970695 -0.51657164 -0.013925188 0.026266903
000090 40 6c 8b be 16 1a aa 3e fd df 13 3e 06 93 7b 3d
       -0.27231026 0.33223027 0.14440913 0.06141951
0000a0 0a 4e cc 3d 20 02 83 3e ec 88 94 3e 84 21 df 3e
       0.09975822 0.2558756 0.29010713 0.43580258
0000b0 41 f3 0f bf b5 fa 9a be 78 7f a8 be 08 82 42 3e
       -0.5623055 -0.302694 -0.3290975 0.18994915
0000c0 2b 4a ac be 24 e6 ac be 55 b6 5d 3c 16 48 83 be
       -0.33650336 -0.33769333 0.013532241 -0.25640935
0000d0 10 23 8f be 10 15 58 3e c9 f2 67 bd 94 ae 2c 3c
       -0.27956438 0.21101785 -0.056628022 0.01053967
0000e0 6e a4 c2 bc 1a 55 63 3e 75 de 25 bd e1 1f df be
       -0.023760047 0.22200432 -0.040495355 -0.4357901
0000f0 15 6f c6 be ce b1 91 bd 4c 96 d3 be c1 32 ba be
       -0.38756624 -0.07113992 -0.41325605 -0.36366847
000100 56 71 fb 3e 02 00 c2 3e 34 2b b1 3e bc 50 12 3f
       0.49109906 0.3789063 0.34603274 0.5715444
000110 52 62 10 bf 94 c6 84 3e 13 4d d6 bd da df b1 bb
       -0.56400025 0.25932753 -0.104639195 -0.0054282965
000120 c4 76 bb 3e b0 f3 ee be 9d 04 14 3f 80 db db 3e
       0.36614048 -0.46670294 0.5781954 0.42940903
000130 bd ae 89 be 9f 6f 0e 3f a6 f4 76 be f7 9f c7 be
       -0.26891127 0.5563907 -0.24116763 -0.3898923
000140 af a4 a3 bd f8 2c a1 3d 4c 36 c3 be fe 42 80 3c
       -0.07990395 0.07869905 -0.38127363 0.015656944
000150 ba a1 b6 be 56 4f 3a 3e be 70 8d 3e 12 c1 05 3e
       -0.35670263 0.18194327 0.27625078 0.13061932
000160 e6 df 38 be 13 17 98 bd 7d 86 ad 3e 21 97 7e 3d
       -0.1805416 -0.07426276 0.3389167 0.062155847
000170 21 4b 0c bf dc ce c4 3e 0c ee e8 be ee d9 82 be
       -0.5480214 0.3843907 -0.45494115 -0.25556892
000180 5f 32 01 3f bf 99 b8 3d 1a cd 5c bd a8 66 49 3e
       0.50467485 0.090137 -0.053906538 0.19668067
000190 83 34 84 3e c8 da 8a 3e 9b 0f 9c 3e a8 4f 7f 3e
       0.25821313 0.27120042 0.30480656 0.2493273
0001a0 a6 44 e2 3e 22 c2 f2 be 1b 2c cb be fc 0f 88 3e
       0.44193 -0.47413737 -0.39682087 0.26574695
0001b0 53 bc 99 3e ec 39 aa be d3 e5 12 3e 39 b8 fa bd
       0.30026492 -0.33247316 0.14345483 -0.12242169
0001c0 fd 11 a9 be d5 d7 20 3d 3a 0b 76 be e2 d9 00 bf
       -0.33021536 0.039268333 -0.2402772 -0.5033246
0001d0 2e d5 e5 3e df ea aa be d5 3e cd be d8 02 f6 3e
       0.44889206 -0.33382317 -0.40087 0.48049045
0001e0 c9 2e 08 3d 04 c1 5a be ba 75 7d bb e5 93 d2 be
       0.033247743 -0.21362692 -0.0038674907 -0.4112846
0001f0 fb 94 15 3f fa e9 12 bf 90 84 fb bd 54 61 b1 3e
       0.5843045 -0.5738827 -0.12281144 0.34644568
000200 37 04 10 be f8 63 3d 3e ea 7a 58 bc 55 44 1f bf
       -0.14064108 0.18495166 -0.013212899 -0.6221364
000210 d1 e3 c3 3e 86 66 ce be 87 db 7c 3e cb 32 d3 3e
       0.38259748 -0.40312594 0.24693118 0.4124969
000220 fc dd f6 3d 7a 60 0f bf c9 63 9d be af e5 f4 be
       0.12054059 -0.56006587 -0.30740193 -0.47831485
000230 de 89 00 3f bc 38 ce be 55 5c 99 bd c6 57 38 3e
       0.5021037 -0.4027766 -0.07488314 0.18002233
000240 21 97 ad 3e 2a 36 ad 3e 00 55 38 3e 13 14 b2 3c
       0.33904365 0.33830386 0.18001175 0.021738088
000250 91 96 8f 3e 04 bc 01 3f 86 07 de 3d 1b b4 d7 bd
       0.2804456 0.50677514 0.10841279 -0.10532399
000260 95 59 49 be a4 24 ee be 2d 73 3d 3d 3a 38 35 be
       -0.19663079 -0.4651233 0.04625242 -0.1769723
000270 17 ee be 3e 56 f0 ce be ba 88 57 be fb 70 16 3f
       0.37291023 -0.40417737 -0.21048251 0.58766145
000280 0a 3d 11 3f e9 db 00 3f 73 cd 31 be cb 31 21 3e
       0.56733763 0.50335556 -0.17363529 0.15741651
000290 e5 50 00 3e 32 17 a5 3e 48 56 9e be 87 ae e3 bd
       0.12530859 0.3224426 -0.30925202 -0.11117273
0002a0 a3 e6 fa 3e a9 6d e0 3d 97 d4 0e 3f 6b fc 33 3e
       0.49004087 0.10958416 0.55793136 0.17576759
0002b0 29 e9 78 3e 05 27 a8 3e 94 08 2b bd d2 26 66 bd
       0.24307694 0.3284227 -0.041756228 -0.056189366
0002c0 59 43 15 be ef 24 00 3f fb 28 fd 3e ea c7 a0 3d
       -0.14576472 0.50056356 0.49445328 0.078506306
0002d0 83 66 fd 3d a9 69 95 3e 5d 24 b4 3d 3b 25 23 bd
       0.12373068 0.29182175 0.08795998 -0.039830428
0002e0 fc 08 28 be aa eb b4 3e ef 75 19 3f e3 e7 65 3e
       -0.16409677 0.35336047 0.5994558 0.22451739
0002f0 ae 13 04 bf ea 63 11 3f 6a 8d 95 bd 78 fa c6 be
       -0.5159253 0.5679308 -0.07302363 -0.38862967
000300 3d d8 09 3f 85 2b d4 be 03 ca 1c 3e 82 94 15 3f
       0.5384558 -0.41439453 0.15311436 0.5842973
000310 a0 b8 ce be ac d3 d3 be ad d5 b8 3e 02 ca fc 3e
       -0.40375233 -0.4137243 0.36100522 0.4937287
000320 3c b8 81 3e 4d 46 05 3f fa 8b 03 3f bc 08 05 3f
       0.25335872 0.52060395 0.5138546 0.5196645
000330 50 ed 8c 3b b2 22 22 3e dd 33 0e 3d 36 c9 2c 3e
       0.004300751 0.15833548 0.03471743 0.16873631
000340 31 0a e2 be 33 71 67 3e 9f 20 0a 3f 65 73 d7 3e
       -0.441484 0.22601776 0.53956026 0.42080227
000350 1c 70 9b 3e 0f 99 03 3f a1 36 72 bd 79 96 ca 3d
       0.3035897 0.51405424 -0.05913413 0.09891982
000360 82 bd 51 be 0b e7 d6 3e 1b 6c d0 bc 22 b7 7c be
       -0.20482448 0.41973147 -0.025442174 -0.24679235
000370 7d db 5b be 93 bb 73 3d 96 37 79 be 1f b7 33 be
       -0.21470447 0.059505057 -0.2433761 -0.17550324
000380 d8 e6 51 be 65 65 f3 be d6 be 34 3e 0a 9a 73 3e
       -0.20498216 -0.47538295 0.17650923 0.2378923
000390 e5 41 7b 3e 1d 3f fd bd 15 a2 64 be 1d cd 8d 3e
       0.24536856 -0.123655535 -0.22327454 0.27695552
0003a0 ca 5c f1 3d 49 b0 9a be a1 b0 12 be 44 61 f0 3e
       0.11785276 -0.3021262 -0.14325191 0.46949208
0003b0 90 5b 16 bf 7a d2 57 be 34 cb d0 be a3 f0 90 bd
       -0.58733463 -0.21076384 -0.40780032 -0.07077148
0003c0 7f 02 d8 3d 41 96 3c bd f7 e5 83 3e e4 d4 be 3e
       0.10547351 -0.04604173 0.25761387 0.37271798
0003d0 a5 d6 35 3d fe 4d 07 be 17 d7 1e bd 21 03 a9 3e
       0.044394154 -0.13213345 -0.038779344 0.330102
0003e0 f4 24 a3 be 03 3c 91 be 22 3c 54 be f8 22 79 bd
       -0.3186413 -0.28366098 -0.20726064 -0.060824364
0003f0 ee 8a 45 3e a0 2a 90 bb 8d ca b7 3e 3d f7 9c 3e
       0.19291279 -0.0043996125 0.3589672 0.30657378

tfl.pseudo_qconst i1 [1000, 16] scale=0.003078113 zero_point=0
000000 01 1f 05 f8 fb 0a 30 2a 1a f9 0d 0b 07 ec c0 00
       0.003078113 0.09542151 0.015390566 -0.024624905 -0.015390566 0.030781131 0.14774942 0.12928075 0.08003094 -0.021546792 0.04001547 0.033859245 0.021546792 -0.061562262 -0.19699924 0.0
000010 06 09 fe fa 07 0a ff 0e 0c 0d fc fc 00 07 f2 06
       0.018468678 0.027703017 -0.006156226 -0.018468678 0.021546792 0.030781131 -0.003078113 0.043093584 0.036937356 0.04001547 -0.012312452 -0.012312452 0.0 0.021546792 -0.043093584 0.018468678
000020 1b fe 02 1e ea ed 0b 12 2d 19 13 1d e0 20 f5 f2
       0.08310905 -0.006156226 0.006156226 0.09234339 -0.06771849 -0.05848415 0.033859245 0.055406034 0.13851508 0.07695283 0.05848415 0.08926528 -0.09849962 0.09849962 -0.033859245 -0.043093584
000030 fd 0f 4f 34 1e 1b 01 09 f8 3b 30 fe e8 4e fe bc
       -0.009234339 0.046171695 0.24317093 0.16006188 0.09234339 0.08310905 0.003078113 0.027703017 -0.024624905 0.18160868 0.14774942 -0.006156226 -0.07387471 0.24009281 -0.006156226 -0.2093117
000040 7f 02 21 75 ee dd 1a 48 60 46 78 55 f3 58 2d ef
       0.39092037 0.006156226 0.10157773 0.36013922 -0.055406034 -0.10773396 0.08003094 0.22162414 0.29549885 0.21546791 0.36937356 0.26163962 -0.04001547 0.27087396 0.13851508 -0.052327923
000050 1e 13 e0 22 f3 30 bf de 43 ea 23 17 d2 32 0a da
       0.09234339 0.05848415 -0.09849962 0.10465585 -0.04001547 0.14774942 -0.20007735 -0.10465585 0.20623358 -0.06771849 0.10773396 0.0707966 -0.1415932 0.15390566 0.030781131 -0.1169683
000060 4e ca 4b 5f cf 1f 0a 45 68 fb 69 64 b6 06 d2 06
       0.24009281 -0.1662181 0.23085847 0.29242074 -0.15082754 0.09542151 0.030781131 0.2123898 0.32012376 -0.015390566 0.32320186 0.30781132 -0.22778037 0.018468678 -0.1415932 0.018468678
000070 0b e2 0e 37 d9 05 05 17 08 05 16 3b d2 1f cc 02
       0.033859245 -0.09234339 0.043093584 0.16929622 -0.12004641 0.015390566 0.015390566 0.0707966 0.024624905 0.015390566 0.06771849 0.18160868 -0.1415932 0.09542151 -0.16006188 0.006156226
000080 0e ee e5 25 c6 0c 15 fc 0f 21 56 2c a3 2d c2 e7
       0.043093584 -0.055406034 -0.08310905 0.113890186 -0.17853056 0.036937356 0.06464037 -0.012312452 0.046171695 0.10157773 0.26471773 0.13543698 -0.2862645 0.13851508 -0.19084302 -0.07695283
000090 bf 36 42 59 c9 f3 56 d7 9b 05 3f 21 a9 4f 99 dc
       -0.20007735 0.1662181 0.20315546 0.27395207 -0.16929622 -0.04001547 0.26471773 -0.12620264 -0.31088942 0.015390566 0.19392112 0.10157773 -0.26779583 0.24317093 -0.31704566 -0.11081207
0000a0 0e fa f2 9d 66 d9 f9 3d fe a1 b5 b1 50 ae 23 4c
       0.043093584 -0.018468678 -0.043093584 -0.3047332 0.31396753 -0.12004641 -0.021546792 0.1877649 -0.006156226 -0.29242074 -0.23085847 -0.24317093 0.24624905 -0.2524053 0.10773396 0.2339366
0000b0 25 4d f3 49 b9 32 06 fd 65 a7 5c 58 b1 60 a8 b6
       0.113890186 0.23701471 -0.04001547 0.22470225 -0.21854603 0.15390566 0.018468678 -0.009234339 0.31088942 -0.27395207 0.2831864 0.27087396 -0.24317093 0.29549885 -0.27087396 -0.22778037
0000c0 29 e4 24 3d f8 14 ff 41 3e fa 3d 4e d1 00 d6 f7
       0.12620264 -0.08618717 0.11081207 0.1877649 -0.024624905 0.061562262 -0.003078113 0.20007735 0.19084302 -0.018468678 0.1877649 0.24009281 -0.14467132 0.0 -0.12928075 -0.027703017
0000d0 aa d2 e7 d6 f4 2d 08 ae b0 3b c9 c1 b3 e1 c9 cc
       -0.26471773 -0.1415932 -0.07695283 -0.12928075 -0.036937356 0.13851508 0.024624905 -0.2524053 -0.24624905 0.18160868 -0.16929622 -0.19392112 -0.23701471 -0.09542151 -0.16929622 -0.16006188
0000e0 ed af e5 f4 07 c1 0e 3f 04 1e ef f1 1c d8 16 11
       -0.05848415 -0.24932715 -0.08310905 -0.036937356 0.021546792 -0.19392112 0.043093584 0.19392112 0.012312452 0.09234339 -0.052327923 -0.046171695 0.08618717 -0.123124525 0.06771849 0.052327923
0000f0 0b df f6 b3 50 f1 f0 2e fa a4 ba bc 5c aa 14 4c
       0.033859245 -0.10157773 -0.030781131 -0.23701471 0.24624905 -0.046171695 -0.04924981 0.1415932 -0.018468678 -0.2831864 -0.21546791 -0.2093117 0.2831864 -0.26471773 0.061562262 0.2339366
