train-model/intent_model_dynamic_quant.tflite (tflite, 23608 bytes, 5 tensors)

arith.constant3 f4 [16]
000000 ed ac 4f ba c9 39 8d bc d1 88 3f bd 40 70 13 bd
       -0.0007922191 -0.017239468 -0.046761338 -0.03599572
000010 e2 83 5c bb 63 1c dd 3c ea 6e 57 bc 3c 10 7d 3c
       -0.0033647944 0.026991075 -0.013149003 0.015445765
000020 06 9e de 3c ab 5b c1 3c d6 cb 19 3d 72 a7 15 3b
       0.02717496 0.023603281 0.03754791 0.00228354
000030 b1 7d c5 3a 1a aa 30 3c 10 94 06 bd 46 ed 17 bd
       0.0015067366 0.010782743 -0.032856047 -0.037091516

arith.constant4 f4 [32]
000000 9e 91 95 3c 83 ff b1 bb d3 30 83 3c f3 0e 0a 3d
       0.018257912 -0.0054320707 0.016014492 0.033705663
000010 d0 cf 0a bd 3e 25 47 3d a1 63 1e bd 1a 37 1a 3c
       -0.03388959 0.0486195 -0.038669232 0.009412551
000020 09 0b 2a 3d e1 f7 82 3d 63 75 27 3d ff f8 35 3d
       0.04151443 0.063949354 0.040883433 0.044426914
000030 a0 27 1f 3d 42 09 93 bc d3 e8 0a bc 34 40 2a 3d
       0.03885615 -0.01794875 -0.008478361 0.041565135
000040 d0 e6 7b 3c 1c e3 62 3d 29 46 42 3c 1c 3b 10 3d
       0.015374854 0.05539237 0.011857548 0.03521262
000050 cc ca e6 3c 66 42 6f 3d 25 50 0f 3d 35 88 80 3a
       0.028172873 0.05841293 0.03498854 0.0009806218
000060 40 d7 61 3d eb 57 b2 3c f5 40 24 bc a0 8a 11 3d
       0.05513692 0.021770438 -0.010025253 0.035532594
000070 90 a3 3d 3c 50 46 e8 3c 45 18 52 3d 00 00 00 00
       0.011574641 0.02835384 0.051292676 0.0

arith.constant5 f4 [16, 32]
000000 fa d2 77 be db 98 c8 3c 97 12 b2 3e a1 52 f2 3c
       -0.24201575 0.02448695 0.34779808 0.029580416
000010 0e d7 75 3e b7 7b 4a be 33 75 05 be 5a dc e3 be
       0.24007818 -0.19773756 -0.13032989 -0.44504052
000020 f2 09 85 be 6f e2 31 3e 9f 5e 96 be 7d d6 c4 bd
       -0.2598415 0.17371534 -0.29369065 -0.09611223
000030 13 2c a7 3e be 9c 99 3e 6e c6 52 3e a2 16 45 be
       0.32650813 0.30002397 0.20583507 -0.19246915
000040 59 57 94 3e a9 af b6 bc 5f d3 88 bd cd 89 f6 be
       0.2897289 -0.022300558 -0.06680941 -0.4815201
000050 b5 64 f3 bd 23 65 b1 be ae 8e 39 3e 56 28 d1 3d
       -0.11884443 -0.34647474 0.18120834 0.102127716
000060 f5 ee 91 bd 9e 95 c1 be df 5a cb 3d 35 cb 23 be
       -0.071256556 -0.3780946 0.09929442 -0.15995486
000070 66 a9 c6 be 5b c1 6a bd fd ef 7d 3e 33 db 07 be
       -0.38801116 -0.057313304 0.2479858 -0.13267212
000080 7f 9f b3 3e 50 ee 71 3d ff 75 f9 bd 58 b5 c9 be
       0.35082623 0.059065163 -0.12180709 -0.39396167
000090 b6 7d b8 be f7 ba 8c 3e 03 b7 77 be 9c 9a da be
       -0.3603341 0.27486393 -0.24190907 -0.42696083
0000a0 6b 69 b5 be 2b 65 cf 3e 62 ae 2a be e6 eb a0 3e
       -0.3543199 0.40506873 -0.16668084 0.31429976
0000b0 e3 a4 e4 3d a3 5a a4 3e b8 86 4c be 61 88 fb be
       0.11164262 0.321004 -0.19973266 -0.49127486
0000c0 bb a1 af 3e d1 3b 8b be 6d 73 b4 3e 28 9d b3 be
       0.34303078 -0.27194074 0.35244313 -0.35080838
0000d0 97 ff 71 3e 44 70 8c be 1a 2a ba be 5e b6 cb 3e
       0.23632656 -0.27429402 -0.36360246 0.39787573
0000e0 1a de a8 bc 3e 88 ca be 2e 79 b1 3d 01 28 9d be
       -0.020613719 -0.3955707 0.08665691 -0.30694583
0000f0 cd 2b 63 3d 16 b0 87 3e c2 5e a9 be 7f 84 8d 3e
       0.055461694 0.2650153 -0.33080107 0.2764015
000100 56 df a6 bd 64 eb c4 ba 0e c0 4e bd 9d 29 7f be
       -0.08148067 -0.0015023765 -0.050476126 -0.24918218
000110 de e1 be 3d dd d4 18 3e a6 e0 99 be 8d 63 bf be
       0.093204245 0.14924951 -0.30054206 -0.3738064
000120 87 ee e4 3e bb a6 41 be f4 32 23 be 35 df 86 3d
       0.44713232 -0.18911259 -0.15937406 0.06585542
000130 db cf 8f be 46 c7 d1 bc 40 ca 1d bd 9e 1f 47 3d
       -0.2808827 -0.025607716 -0.03852296 0.048614137
000140 2a 71 0b bf 31 86 f4 3e b9 19 93 be a4 92 1a 3d
       -0.5446955 0.4775863 -0.28730562 0.037737504
000150 92 79 57 be fe 0c da 3e ff 23 44 be 83 ca d2 be
       -0.21042469 0.42588037 -0.19154356 -0.4117013
000160 54 e2 bf be f5 b0 ca be 0c 19 09 bf b3 59 bd bd
       -0.37477362 -0.39588133 -0.53553843 -0.092456244
000170 01 62 05 bf 85 28 95 3e 51 ba 33 3e 62 30 66 3e
       -0.5210267 0.29132476 0.17551543 0.22479394
000180 99 8d 53 3b 17 88 ea bd c0 c3 bd be 5f dc 2a 3e
       0.0032280444 -0.11451738 -0.37063408 0.16685627
000190 dd 11 9c be c4 e9 b3 be 94 3a c4 3d 12 61 b3 3d
       -0.3048238 -0.35139287 0.095814854 0.08758749
0001a0 81 c3 8c bd ff 8f 09 3e 11 b3 48 be 05 67 96 be
       -0.06873227 0.13433836 -0.19599558 -0.29375473
0001b0 42 eb 0d be fa 77 db 3d 04 67 1e be 09 de b8 3e
       -0.13859275 0.10716243 -0.15468985 0.361069
0001c0 e3 9d 0a bf 6b 5e ed 3d 54 14 d1 bd 06 67 be be
       -0.54147166 0.115902744 -0.102089554 -0.37187976
0001d0 f0 2d b8 be 17 08 a8 3e bf bd 28 be 42 78 c8 be
       -0.35972548 0.32818672 -0.16478632 -0.3915425
0001e0 49 a7 94 be d0 ea 99 3e 80 75 d5 3d 8d ff 99 be
       -0.29033878 0.3006196 0.10422802 -0.30077782
0001f0 7e a5 92 be 3b 41 96 3e 95 d7 90 3e 7b 7a 81 3e
       -0.28641886 0.29346642 0.28289476 0.25288758
000200 07 50 04 be ad 8d 88 3e 02 68 8a 3d c4 77 76 be
       -0.12921153 0.2667059 0.06758119 -0.24069124
000210 ed 2c 1e 3e 9a 6d fe be a3 79 c5 bd f1 5e 2c bd
       0.15446825 -0.49692994 -0.09642341 -0.04208273
000220 8f da 78 3d b4 61 9f 3d 4e 01 93 be 43 6e 8e bd
       0.06075531 0.07782307 -0.28711933 -0.069546245
000230 e3 aa f3 be 89 33 8f be b1 39 62 3e 5c d4 b2 be
       -0.47591314 -0.27969006 0.2209232 -0.34927642
000240 ca 49 89 3e c4 ab c5 3c 2f 18 3f be fe b2 dc be
       0.2681411 0.024129756 -0.18661569 -0.4310531
000250 c0 28 5b be f3 c2 a8 3e e9 69 86 3e 90 45 6c 3e
       -0.21402264 0.32961234 0.26252678 0.23073411
000260 6d 0e 67 be cb fc e7 be 5f 26 6b 3e 5e 46 9d 3e
       -0.22564097 -0.45310053 0.22963856 0.30717748
000270 87 cd 53 be 61 74 36 3d 85 b2 f0 be a9 de a2 3e
       -0.20683871 0.04454458 -0.470112 0.318105
000280 cb f6 1c be d3 f8 76 be 9d 92 a7 3d ff fb 88 bd
       -0.15328519 -0.24118356 0.08182261 -0.066886894
000290 6e f7 77 3e 58 d3 6c be 50 1c 97 be 72 e5 f8 3e
       0.2421548 -0.23127496 -0.29513788 0.48612553
0002a0 2c fd b8 be 38 37 8a bd 1d 18 bf 3d 39 bb 0a be
       -0.36130655 -0.067488134 0.09330771 -0.13547982
0002b0 e0 72 80 3e e3 15 98 3e 2a 37 b6 bc 7d 1d 81 be
       0.25087643 0.29704198 -0.022243101 -0.2521781
0002c0 2c fa 23 bc de 8a 0f be 37 c2 ac bd c3 d8 cf 3e
       -0.010008376 -0.14017817 -0.08435481 0.40595064
0002d0 bd 2e 6c be 82 dc 01 bf e8 b6 55 3e 0a e5 84 be
       -0.23064704 -0.50727093 0.20870554 -0.25955993
0002e0 be c6 ac bd 46 4a a4 3d 71 d3 9e be 91 30 2e 3e
       -0.084363446 0.08021979 -0.31020692 0.17010714
0002f0 21 06 1f 3e da 11 74 3e 59 31 a3 bc ee dc 49 3e
       0.15529682 0.23834935 -0.019920992 0.19713184
000300 a3 52 c1 bd 1a 0d 0f 3e 94 0e 86 3d a6 b2 da be
       -0.0943959 0.13969842 0.06545749 -0.42714423
000310 b5 57 76 be 00 51 0f bf 5a 9a bb 3d c3 bd 9e bd
       -0.24056895 -0.5598297 0.091602996 -0.07751038
000320 16 41 39 be 82 37 80 3e 79 d7 f4 be 5a b9 79 bd
       -0.18091235 0.2504235 -0.47820643 -0.06096778
000330 b2 39 af 3e 0d d1 9d be b3 f9 71 3e 5b 65 c0 3e
       0.34223706 -0.30823556 0.23630409 0.37577328
000340 9f cc 01 3e 1e be c0 be 9f 78 1b 3e 2f df 04 3c
       0.12675713 -0.37645048 0.15182732 0.008109852
000350 28 cd 56 be 39 19 ed 3d a7 76 cc 3e 84 5e 81 be
       -0.20976698 0.115770765 0.39934275 -0.25267422
000360 d1 16 8d be 7f 27 bf 3c 3d 9b 18 bd 46 86 56 3c
       -0.2755647 0.023334263 -0.03725742 0.013093537
000370 42 79 d7 3e c4 99 d9 be fd 93 bb be 6b 88 a8 3e
       0.420847 -0.42500126 -0.36636344 0.3291658
000380 54 2a 21 be bb 52 93 bd 73 9f dc be fa 4a ad be
       -0.15738803 -0.07193514 -0.430904 -0.33846265
000390 ba a0 3c be fb f4 d7 bc 7e 45 4b 3d e4 41 e5 3d
       -0.18420687 -0.026361933 0.04962682 0.11194208
0003a0 00 5c b9 be 8a aa 3c 3e ba bf 09 bf 79 80 f7 be
       -0.36203003 0.1842443 -0.53808177 -0.48340204
0003b0 aa 1d b5 bd 9f 3d 07 be 26 30 0f be c4 e7 7f 3d
       -0.088435486 -0.132071 -0.13983211 0.06247689
0003c0 56 ed 84 be e2 83 dd bd 30 b2 39 be 2e c5 81 3e
       -0.25962323 -0.1081617 -0.1813438 0.2534575
0003d0 23 7f 16 3e 46 05 09 bf 89 0d 3f 3e d6 b4 b4 be
       0.14696936 -0.5352367 0.18657507 -0.35294217
0003e0 95 1f a0 be 2d 2a c4 be 96 19 b0 be cc 4f f7 3d
       -0.31274095 -0.38313428 -0.3439452 0.12075767
0003f0 74 bb 6a 3c 62 d5 ae be 4b 5f ea bc 1e af 7d be
       0.014326919 -0.34147173 -0.028609892 -0.24773833

arith.constant6 f4 [32, 16]
000000 33 ec 27 be 40 21 30 bc af d5 5e 3e d1 73 78 3e
       -0.16398697 -0.010750115 0.21761201 0.2426293
000010 0d 0b 96 3d 50 40 76 3e 2d a6 13 3d 5d 4a 6a 3e
       0.073263265 0.24047971 0.03604715 0.2287993
000020 da 12 c4 be 72 04 5b 3e 29 28 b4 be 5a 5e 39 be
       -0.38295633 0.21388415 -0.3518689 -0.18102399
000030 04 98 c8 3d 50 d0 c7 be 5d 31 56 3e 9d a4 db 3d
       0.0979462 -0.39026117 0.20917268 0.10724757
000040 ff 7d 9b be 7b fc 7a 3e 54 43 96 3e ae 12 8c 3e
       -0.30369565 0.24510376 0.29348242 0.27358
000050 04 cf 92 3e 20 32 ee 3d 87 82 94 3e d2 10 e9 3d
       0.28673565 0.11630654 0.29005834 0.11380161
000060 3d f8 72 bd 9a 3f f0 3d 29 07 37 be 16 7a 29 3d
       -0.05931877 0.11730881 -0.17873825 0.041376196
000070 05 fb 13 3e 4d b9 af bd a1 9c 85 bc a7 44 7b 3e
       0.14451225 -0.08580265 -0.016310038 0.24537908
000080 7d 10 63 bc 11 a9 98 be 7c c2 b1 3e c3 aa 63 3b
       -0.013858912 -0.29816487 0.34718692 0.0034739233
000090 e5 f7 89 3e 36 de 41 be cc 2a ed be 6c 0d 11 bd
       0.2694694 -0.18932423 -0.46321714 -0.03541319
0000a0 61 84 ad be 63 4a 80 3e 14 8c b6 be e5 fd c9 3d
       -0.3389006 0.25056753 -0.35653746 0.0986288
0000b0 60 80 83 3d 86 b2 1a be 98 c9 88 3e 5a 60 35 3e
       0.0642097 -0.15107164 0.26716304 0.17712536
0000c0 97 e2 bc be c0 31 76 3e f0 62 7c bd c0 09 7c be
       -0.36891624 0.24042416 -0.06161779 -0.24613094
0000d0 82 b4 66 be e3 ae a3 3e fd 31 98 3e e9 51 53 3d
       -0.22529796 0.31969365 0.29725638 0.051591787
0000e0 41 c9 8f be e2 cc 10 3e eb 46 2f 3d 07 87 d8 3c
       -0.28083232 0.14140657 0.042792242 0.026431574
0000f0 38 c0 a5 3e 66 c5 58 be da 36 42 3e fe ed a5 be
       0.32373214 -0.21169052 0.18966237 -0.32408136
000100 84 01 ef 3c b0 02 00 be 04 c8 57 3e c4 ad 0f be
       0.029175527 -0.12501025 0.21072394 -0.1403113
000110 76 4f b8 3e 2c b9 54 3d 41 fb 5b 3e df 66 b6 3e
       0.35998124 0.051934406 0.21482565 0.3562536
000120 ae 7b 82 3e f9 9f 96 3d 32 67 68 3e 5f 4f d9 bd
       0.25484985 0.07354731 0.22695616 -0.10610842
000130 c4 b3 c7 bd ac 23 a9 3e ec 32 0b bd 98 d1 55 be
       -0.097510844 0.33035028 -0.03398411 -0.20880735
000140 14 03 3e bd 9c d6 45 be 55 be 42 3e 0b 49 84 be
       -0.046389654 -0.19320148 0.19017918 -0.25836977
000150 89 9e 00 be 67 cf 7d be f8 8f 92 3e e3 d2 99 be
       -0.12560476 -0.24786149 0.28625464 -0.30043706
000160 df 99 ff be d6 23 c9 be f8 d4 c5 be ea 68 fa 3e
       -0.49922082 -0.39285153 -0.38639045 0.48908168
000170 32 50 60 3d 6d 9f d7 be 4b 5b b5 bd 29 10 2b 3e
       0.05476398 -0.4211382 -0.088553034 0.16705383
000180 15 55 19 3e db 5b 8f 3e b1 5d 34 3e b7 b6 57 3e
       0.14973862 0.27999768 0.17613865 0.21065794
000190 3c 85 0f be 60 07 83 be d9 96 c7 3d be 69 89 3e
       -0.14015669 -0.25591564 0.09745569 0.26838487
0001a0 3d d1 bf 3c 11 04 10 3e 67 b5 3e be 8b ce 1a 3e
       0.023415202 0.14064051 -0.18623887 0.15117852
0001b0 7e 47 98 be 72 d2 aa 3e 2d 72 ef 3c 08 78 0b 3e
       -0.29742044 0.33363682 0.029229248 0.13620007
0001c0 bb 30 4e 3e 90 77 0c bb 86 bc 26 be 7e 81 4d 3e
       0.20135777 -0.002143357 -0.16282853 0.20068929
0001d0 57 d6 dd 3d 02 93 4f bd e4 c6 8f 3e b9 13 49 bc
       0.10831898 -0.050677307 0.2808143 -0.012272769
0001e0 7f 50 0f be 80 81 e4 3e c1 37 97 bd 4f 63 6a 3e
       -0.1399555 0.4463005 -0.07383681 0.22889446
0001f0 1a 6a b1 3e f2 d1 60 3c 53 6a b6 3c e8 25 ac be
       0.34651262 0.01372193 0.022267496 -0.3362267
000200 e7 f7 a8 be c3 1c ec 3c 5c d0 ce bd df 7e 2a be
       -0.33001634 0.028822308 -0.10098335 -0.1664996
000210 d5 1f ef 3d 19 74 9a 3e 2d 48 0b be 47 5b a1 3d
       0.11675993 0.301667 -0.13601752 0.07878738
000220 0d 37 e0 3e d5 cf a5 be e3 4e 3a be 2d 34 15 3e
       0.43792 -0.32385126 -0.18194155 0.14570685
000230 c6 a1 ca bb 73 5e 16 3e 52 fe b6 3e cb b4 0e 3e
       -0.0061838357 0.14684467 0.35740906 0.13936155
000240 d5 91 aa 3e 99 3b 3c 3e 61 e5 52 bc 56 e8 0c 3e
       0.33314386 0.1838211 -0.012872071 0.13760504
000250 9a 00 80 be 5a 64 c8 be 9b 0e 9c be cd bf 8f be
       -0.2500046 -0.39139062 -0.30479893 -0.2807602
000260 3a e1 9d 3e 99 66 d6 be e3 07 89 3d eb 47 fe be
       0.30835897 -0.4187515 0.066909574 -0.49664244
000270 dd 83 74 be 13 5d 2f be c8 f2 99 be a6 12 35 be
       -0.23878427 -0.17125349 -0.3006804 -0.17682895
000280 3f da 7b be 5b e9 27 3d 8b 35 ee bc 55 60 ae 3d
       -0.24594973 0.04099403 -0.029078266 0.085144676
000290 08 02 da be ea da 36 3e d4 0c 66 bd d6 9e 84 3e
       -0.42579675 0.17856947 -0.056164578 0.25902432
0002a0 30 b9 01 bf d5 e5 0a be 0e 18 cb be 40 87 cd 3e
       -0.506732 -0.13564236 -0.3966679 0.4014225
0002b0 6e f2 62 3d 18 8c e2 be 5b cc e0 3d ee ab eb 3b
       0.05540698 -0.44247508 0.10976478 0.0071921265
0002c0 a4 21 7e 3d 4f 36 f6 3d 40 f4 7d 3e 29 d4 9a be
       0.0620438 0.12022077 0.24800205 -0.3023999
0002d0 9d 0c 9a be 0c fc df 3d e0 3b fb be fa 7a e9 3d
       -0.30087748 0.10936746 -0.49069118 0.11400409
0002e0 9c eb 9a be 27 c2 61 be 7c 2c a6 be 8f cc 2e be
       -0.3025788 -0.2204672 -0.32455814 -0.1707022
0002f0 d9 f6 2d be 11 51 33 bd 16 26 45 be fd 11 9c be
       -0.16988696 -0.043778483 -0.1925281 -0.30482474
000300 4d 9f 30 be 24 ef 85 be 64 f1 24 bd 75 eb d9 3e
       -0.17248268 -0.26159012 -0.04026927 0.42562452
000310 f9 db f1 be 7c 30 bc bd dc a4 db bd 63 c3 ea 3e
       -0.47238138 -0.09188935 -0.10724804 0.45852193
000320 17 1c d1 be 1b b5 c1 3e 97 f4 e3 3d 35 9b 99 be
       -0.40841743 0.37833485 0.11130636 -0.30001226
000330 f6 d9 a8 3e ab ed fa be b0 62 77 be 3a 36 b3 be
       0.3297879 -0.4900945 -0.2415874 -0.3500231
000340 db a9 90 be aa 99 d9 3c ed 3c 87 be a4 a3 2e 3e
       -0.2825459 0.02656253 -0.2641367 0.17054611
000350 24 91 2a 3e ef 82 a2 be b2 73 df bc 9f 1f 3b 3d
       0.16656929 -0.3174052 -0.027276848 0.045684453
000360 37 57 11 bd eb 0a 9b 3c 8f 70 93 3e 8e 1d 3d be
       -0.035483565 0.018926105 0.28796813 -0.18468305
000370 9e 49 86 be ad 7c 87 be 29 39 d6 bd a4 25 a4 3e
       -0.2622804 -0.26462308 -0.10460121 0.32059968
000380 2a 26 00 bd 0b 75 3a 3e d9 9d e2 bd 25 a1 95 be
       -0.031286396 0.18208711 -0.11065263 -0.29224506
000390 b3 b7 0a 3e 27 62 8d 3e 9b c1 81 be 6b 8e 81 3e
       0.13546638 0.27613947 -0.25343022 0.2530397
0003a0 fb 59 a2 3e 52 e3 13 bd 2b 96 9a be e7 d1 40 bd
       0.31709275 -0.03610546 -0.30192694 -0.04707518
0003b0 71 66 42 bd 43 e9 b3 3e 61 ff 72 be ae 7a 0e 3d
       -0.047460977 0.35138902 -0.23730232 0.034784965
0003c0 63 4a 8f 3e 4a 5e 9e be 00 f3 85 3d 3c bc 9c be
       0.2798644 -0.30931312 0.06540489 -0.3061236
0003d0 e1 ad bf bd b0 7d f5 be 0d 9c b4 3e 18 0d 71 3e
       -0.09359337 -0.47947454 0.35275307 0.23540151
0003e0 fc ef ad 3e 63 7a ac be 02 c7 68 3e a2 2a ae 3d
       0.33972156 -0.33687124 0.22732165 0.08504225
0003f0 19 29 40 be 59 98 b2 3e 99 27 8d 3e 50 2d 8d 3e
       -0.18765678 0.34881857 0.27569273 0.27573633

tfl.pseudo_qconst i1 [1000, 16] scale=0.0031025435 zero_point=0
000000 f1 bd d5 2e c8 e6 f3 f5 fd fc e7 ff 08 f1 2d cf
       -0.04653815 -0.20787042 -0.13340937 0.142717 -0.17374244 -0.08066613 -0.040333066 -0.03412798 -0.00930763 -0.012410174 -0.07756359 -0.0031025435 0.024820348 -0.04653815 0.13961446 -0.15202463
000010 01 0c 01 06 0b 0b f5 05 00 06 07 0d f9 fe fe fa
       0.0031025435 0.03723052 0.0031025435 0.01861526 0.03412798 0.03412798 -0.03412798 0.015512718 0.0 0.01861526 0.021717805 0.040333066 -0.021717805 -0.006205087 -0.006205087 -0.01861526
000020 cf f6 16 ea c7 1b 06 07 df f1 e9 29 0a c5 fa 06
       -0.15202463 -0.031025436 0.06825596 -0.06825596 -0.17684498 0.08376867 0.01861526 0.021717805 -0.102383934 -0.04653815 -0.0713585 0.12720428 0.031025436 -0.18305007 -0.01861526 0.01861526
000030 d9 3c 16 db e0 35 d7 dd e3 d1 e7 16 e4 d3 f0 4a
       -0.120999195 0.1861526 0.06825596 -0.11479411 -0.09928139 0.1644348 -0.12720428 -0.10858902 -0.08997376 -0.14581954 -0.07756359 0.06825596 -0.08687122 -0.13961446 -0.049640696 0.22958823
000040 e4 75 3f d0 11 18 20 35 ec ac c9 43 bf ce d4 74
       -0.08687122 0.3629976 0.19546025 -0.14892209 0.05274324 0.07446104 0.09928139 0.1644348 -0.06205087 -0.26061365 -0.17063989 0.20787042 -0.20166533 -0.15512718 -0.13651192 0.35989505
000050 1c ec be 4c c2 ce 39 16 df ac db 49 91 0a 3a e2
       0.08687122 -0.06205087 -0.20476787 0.2357933 -0.1923577 -0.15512718 0.17684498 0.06825596 -0.102383934 -0.26061365 -0.11479411 0.22648568 -0.34438235 0.031025436 0.17994753 -0.0930763
000060 f7 29 cc aa 3a eb 68 ea 53 81 00 72 8f 3e 6c 48
       -0.027922891 0.12720428 -0.16133226 -0.26681873 0.17994753 -0.06515341 0.32266453 -0.06825596 0.2575111 -0.39402303 0.0 0.35368997 -0.35058743 0.1923577 0.3350747 0.22338313
000070 17 fb f9 ed e1 f5 d3 eb f0 e4 d1 01 b5 0c 13 15
       0.0713585 -0.015512718 -0.021717805 -0.058948327 -0.09617885 -0.03412798 -0.13961446 -0.06515341 -0.049640696 -0.08687122 -0.14581954 0.0031025435 -0.23269077 0.03723052 0.058948327 0.06515341
000080 27 22 ef f2 08 ed f5 17 20 d6 e8 13 c9 09 01 ff
       0.120999195 0.10548648 -0.05274324 -0.04343561 0.024820348 -0.058948327 -0.03412798 0.0713585 0.09928139 -0.13030683 -0.07446104 0.058948327 -0.17063989 0.027922891 0.0031025435 -0.0031025435
000090 51 4c e2 e9 e0 5a 96 b7 50 d5 fd ac d6 10 da 17
       0.25130603 0.2357933 -0.0930763 -0.0713585 -0.09928139 0.27922893 -0.3288696 -0.22648568 0.24820349 -0.13340937 -0.00930763 -0.26061365 -0.13030683 0.049640696 -0.11789665 0.0713585
0000a0 5e e7 07 09 41 9b 54 15 5f f8 4a c8 40 3e af b4
       0.2916391 -0.07756359 0.021717805 0.027922891 0.20166533 -0.3133569 0.26061365 0.06515341 0.29474163 -0.024820348 0.22958823 -0.17374244 0.19856279 0.1923577 -0.25130603 -0.2357933
0000b0 b3 5d 48 cd 66 58 53 4f 44 ae 1e 5d a4 42 53 66
       -0.23889585 0.28853655 0.22338313 -0.15822972 0.31645945 0.27302384 0.2575111 0.24510095 0.21097296 -0.25440857 0.0930763 0.28853655 -0.285434 0.20476787 0.2575111 0.31645945
0000c0 f0 2b cd db 25 e9 3a 01 20 ca 02 51 ac 25 56 13
       -0.049640696 0.13340937 -0.15822972 -0.11479411 0.11479411 -0.0713585 0.17994753 0.0031025435 0.09928139 -0.16753735 0.006205087 0.25130603 -0.26061365 0.11479411 0.26681873 0.058948327
0000d0 f9 bc 15 ef 0d fc 03 2c bf 55 df 56 3c d6 26 e0
       -0.021717805 -0.21097296 0.06515341 -0.05274324 0.040333066 -0.012410174 0.00930763 0.13651192 -0.20166533 0.2637162 -0.102383934 0.26681873 0.1861526 -0.13030683 0.11789665 -0.09928139
0000e0 4c c6 33 40 cf 03 ab d5 c0 28 ac 9e db ca bb fe
       0.2357933 -0.17994753 0.15822972 0.19856279 -0.15202463 0.00930763 -0.2637162 -0.13340937 -0.19856279 0.12410174 -0.26061365 -0.30404925 -0.11479411 -0.16753735 -0.2140755 -0.006205087
0000f0 35 e8 f5 03 2a af 4b fe 3e f9 51 b9 29 3b b8 c1
       0.1644348 -0.07446104 -0.03412798 0.00930763 0.13030683 -0.25130603 0.23269077 -0.006205087 0.1923577 -0.021717805 0.25130603 -0.22028059 0.12720428 0.18305007 -0.22338313 -0.19546025
