train-model/intent_model_float16.tflite (tflite, 36800 bytes, 5 tensors)

arith.constant3 f2 [16]
000000 c0 a1 79 1a 8a ac 52 ac ba a4 6c 29 d2 23 1b 18
       -0.01123 0.00316 -0.0709 -0.0675 -0.01846 0.04236 0.015274 0.002005
000010 35 2a 66 25 7d 2a 00 a4 7d 27 9d a4 7e a9 03 a0
       0.0485 0.02109 0.0507 -0.01563 0.02925 -0.01802 -0.0429 -0.007835

arith.constant4 f2 [16]
000000 98 2a 78 26 94 2b 8c 26 bc 2a bd 26 0a 28 a0 2a
       0.0515 0.02527 0.0592 0.02557 0.0526 0.02632 0.03156 0.05176
000010 98 2c 02 25 25 27 d5 24 31 28 a5 28 17 26 f6 a7
       0.0718 0.01956 0.02791 0.01888 0.03275 0.0363 0.02379 -0.0311

arith.constant5 f2 [1000, 16]
000000 d5 16 1c 2e 3a 23 ff a5 c0 a3 f5 27 ba 30 20 30
       0.001668 0.09546 0.014114 -0.02342 -0.01514 0.03108 0.1477 0.1289
000010 26 2d 3e a5 f4 28 58 28 ba 25 b5 ab 55 b2 9c 94
       0.08044 -0.02048 0.0387 0.03394 0.02237 -0.0602 -0.1979 -0.001125
000020 d4 24 35 27 18 9f f0 a4 af 25 f8 27 c5 9a 64 29
       0.01886 0.02815 -0.006927 -0.01929 0.0222 0.03113 -0.003305 0.0421
000030 bc 28 14 29 05 a2 d1 a1 3e 11 50 25 b5 a9 1d 25
       0.037 0.03967 -0.01176 -0.01136 0.00064 0.02075 -0.0446 0.01997
000040 51 2d 34 9e d0 1e e8 2d 69 ac 84 ab 2f 28 f0 2a
       0.08307 -0.006058 0.006653 0.0923 -0.0689 -0.05872 0.03268 0.0542
000050 6f 30 dd 2c 73 2b b8 2d 4f ae 55 2e 64 a8 86 a9
       0.1385 0.076 0.0582 0.08936 -0.0986 0.09894 -0.0343 -0.04315
000060 8b a0 d9 29 c8 33 21 31 ef 2d 64 2d 5f 18 36 27
       -0.00887 0.0457 0.2432 0.1603 0.0927 0.0842 0.002134 0.02817
000070 28 a6 d2 31 b6 30 d1 9c b1 ac b6 33 94 9f bc b2
       -0.02405 0.1819 0.1472 -0.004704 -0.0733 0.241 -0.0074 -0.2104
000080 41 36 aa 1e 6d 2e bf 35 4a ab f5 ae 10 2d 23 33
       0.3909 0.006508 0.1004 0.3591 -0.05695 -0.1087 0.0791 0.223
000090 bd 34 ef 32 ec 35 34 34 f6 a8 59 34 69 30 96 aa
       0.2961 0.2167 0.37 0.2627 -0.03876 0.2717 0.1378 -0.05145
0000a0 d8 2d 62 2b 5d ae b9 2e 17 a9 c2 30 65 b2 cb ae
       0.0913 0.05768 -0.0994 0.10504 -0.03976 0.1487 -0.1998 -0.10614
0000b0 95 32 65 ac d8 2e 9d 2c 89 b0 e1 30 0f 28 73 af
       0.2057 -0.06866 0.10693 0.0721 -0.1417 0.1525 0.0317 -0.1164
0000c0 b3 33 47 b1 6b 33 b3 34 c9 b0 31 2e 8f 27 cd 32
       0.2406 -0.1649 0.2318 0.2937 -0.1495 0.09674 0.02953 0.2125
0000d0 1f 35 28 a3 26 35 e7 34 50 b3 d2 24 90 b0 eb 24
       0.32 -0.01398 0.3218 0.3064 -0.2285 0.01883 -0.1426 0.01921
0000e0 2e 28 d6 ad b1 29 62 31 c8 af e9 23 4d 24 8a 2c
       0.03265 -0.0912 0.04446 0.1682 -0.1216 0.01545 0.0168 0.0709
0000f0 23 26 d8 23 43 2c cd 31 86 b0 07 2e 27 b1 f4 1e
       0.02397 0.01532 0.0666 0.1813 -0.1414 0.0942 -0.161 0.00679
000100 8d 29 14 ab 39 ad 57 2f c0 b1 c5 28 25 2c 84 a2
       0.04337 -0.0553 -0.0816 0.1147 -0.1797 0.03726 0.06476 -0.012726
000110 bc 29 7b 2e 3a 34 5d 30 95 b4 65 30 17 b2 ed ac
       0.0448 0.10126 0.2642 0.1364 -0.2864 0.1373 -0.1903 -0.07697
000120 71 b2 52 31 76 32 60 34 64 b1 28 a9 38 34 15 b0
       -0.2013 0.1663 0.2019 0.2734 -0.1685 -0.04028 0.2637 -0.1276
000130 fa b4 43 24 3d 32 8d 2e 4e b4 cf 33 15 b5 1e af
       -0.311 0.01665 0.195 0.10236 -0.269 0.244 -0.3176 -0.1112
000140 97 29 06 a5 98 a9 e0 b4 08 35 c5 af cb a5 fc 31
       0.04367 -0.01962 -0.0437 -0.3047 0.3145 -0.1214 -0.02263 0.187
000150 70 9f ad b4 62 b3 bd b3 de 33 0f b4 cf 2e 7e 33
       -0.007263 -0.2922 -0.2307 -0.2418 0.2458 -0.2537 0.1064 0.2341
000160 38 2f 93 33 13 a9 3a 33 05 b3 e6 30 9e 24 3d a1
       0.1128 0.2367 -0.03964 0.2258 -0.2194 0.1531 0.01804 -0.01023
000170 f8 34 5e b4 8e 34 55 34 c9 b3 b8 34 57 b4 49 b3
       0.3105 -0.273 0.2847 0.2708 -0.2433 0.295 -0.2712 -0.2277
000180 0b 30 6e ad 04 2f 03 32 f3 a5 ed 2b 70 98 6c 32
       0.1263 -0.08484 0.1096 0.1879 -0.02324 0.06192 -0.002167 0.2007
000190 20 32 1e a5 01 32 ba 33 a7 b0 e8 0d 20 b0 27 a7
       0.1914 -0.01999 0.1876 0.2415 -0.1454 0.0003605 -0.1289 -0.02794
0001a0 3f b4 85 b0 02 ad 1d b0 e6 a8 6d 30 33 26 0d b4
       -0.2654 -0.1412 -0.07825 -0.1285 -0.03827 0.1383 0.02422 -0.2532
0001b0 dd b3 d6 31 6b b1 30 b2 96 b3 02 ae 6e b1 18 b1
       -0.2457 0.1824 -0.1693 -0.1934 -0.237 -0.0939 -0.1697 -0.1592
0001c0 81 ab f4 b3 3c ad ca a8 c5 25 33 b2 82 29 30 32
       -0.05862 -0.2485 -0.0818 -0.0374 0.02254 -0.1937 0.04303 0.1934
0001d0 3f 22 f9 2d c0 aa 0a aa 9a 2d f0 af 4d 2c c7 2a
       0.0122 0.0933 -0.05273 -0.04718 0.0875 -0.124 0.0672 0.05295
0001e0 54 28 76 ae a7 a7 9a b3 e1 33 f6 a9 75 aa 8c 30
       0.0338 -0.10095 -0.02989 -0.2375 0.2462 -0.04657 -0.05045 0.1421
0001f0 6c a4 8b b4 db b2 ab b2 8a 34 41 b4 d4 2b 86 33
       -0.01727 -0.284 -0.2142 -0.2084 0.2837 -0.2659 0.06116 0.2351

arith.constant6 f2 [16, 16]
000000 85 b8 20 35 36 b6 27 b4 b2 b5 3e b7 90 35 7f b5
       -0.565 0.3203 -0.3882 -0.2595 -0.356 -0.4526 0.3477 -0.3435
000010 58 b7 fa 37 64 b5 a5 24 59 b1 71 b5 6f b6 22 b6
       -0.459 0.4985 -0.337 0.01814 -0.1671 -0.34 -0.402 -0.3833
000020 d1 30 e7 37 73 b1 51 34 8f b8 0d b0 64 ab c6 b5
       0.1505 0.494 -0.1703 0.2698 -0.57 -0.1266 -0.05774 -0.3608
000030 93 36 40 b6 1f 36 78 36 79 b5 d6 06 7e b2 38 36
       0.411 -0.3906 0.3826 0.4043 -0.342 0.0001043 -0.2029 0.3887
000040 13 b6 22 b8 21 a3 b9 26 5b b4 51 35 9f 30 dd 2b
       -0.3796 -0.5166 -0.01392 0.02626 -0.2722 0.3323 0.1444 0.06143
000050 62 2e 18 34 a4 34 f9 36 80 b8 d8 b4 44 b5 14 32
       0.09973 0.2559 0.29 0.4358 -0.5625 -0.3027 -0.329 0.19
000060 62 b5 67 b5 ee 22 1a b4 79 b4 c1 32 40 ab 65 21
       -0.3364 -0.3376 0.013535 -0.2563 -0.2795 0.211 -0.05664 0.01054
000070 15 a6 1b 33 2f a9 f9 b6 33 b6 8e ac 9d b6 d2 b5
       -0.02376 0.222 -0.0405 -0.4358 -0.3875 -0.07117 -0.4133 -0.3638
000080 dc 37 10 36 89 35 93 38 83 b8 26 34 b2 ae 8f 9d
       0.4912 0.379 0.346 0.572 -0.564 0.2593 -0.1046 -0.00543
000090 dc 35 78 b7 a0 38 df 36 4d b4 73 38 b8 b3 3d b6
       0.3662 -0.4668 0.578 0.4294 -0.2688 0.556 -0.2412 -0.39
0000a0 1d ad 09 2d 1a b6 02 24 b5 b5 d2 31 6c 34 2e 30
       -0.0799 0.0787 -0.3813 0.01566 -0.3567 0.1819 0.2764 0.1306
0000b0 c7 b1 c1 ac 6c 35 f5 2b 62 b8 26 36 47 b7 17 b4
       -0.1805 -0.0743 0.3389 0.06216 -0.548 0.3843 -0.4548 -0.2556
0000c0 0a 38 c5 2d e6 aa 4b 32 22 34 57 34 e0 34 fa 33
       0.505 0.09015 -0.0539 0.1967 0.2583 0.2712 0.3047 0.2493
0000d0 12 37 96 b7 59 b6 40 34 ce 34 52 b5 97 30 d6 af
       0.442 -0.474 -0.3967 0.2656 0.3003 -0.3325 0.1434 -0.12244
0000e0 49 b5 07 29 b0 b3 07 b8 2f 37 57 b5 6a b6 b0 37
       -0.3303 0.03928 -0.2402 -0.5034 0.449 -0.3337 -0.401 0.4805
0000f0 41 28 d6 b2 ec 9b 95 b6 ad 38 97 b8 dc af 8b 35
       0.03323 -0.2136 -0.003868 -0.4114 0.5845 -0.5737 -0.1228 0.3464
000100 80 b0 eb 31 c4 a2 fa b8 1f 36 73 b6 e7 33 9a 36
       -0.1406 0.1849 -0.013214 -0.622 0.3826 -0.403 0.247 0.4126
000110 b7 2f 7b b8 eb b4 a7 b7 04 38 72 b6 cb ac c3 31
       0.12054 -0.56 -0.3074 -0.4783 0.502 -0.4028 -0.0749 0.18
000120 6d 35 6a 35 c3 31 91 25 7d 34 0e 38 f0 2e be ae
       0.339 0.3384 0.18 0.02174 0.2805 0.507 0.1084 -0.10535
000130 4b b2 71 b7 ec 29 aa b1 f7 35 78 b6 bc b2 b4 38
       -0.1967 -0.465 0.04626 -0.177 0.3728 -0.4043 -0.2104 0.588
000140 8a 38 07 38 8e b1 0a 31 03 30 29 35 f3 b4 1d af
       0.5674 0.5034 -0.1736 0.1575 0.1254 0.3225 -0.3093 -0.11115
000150 d7 37 03 2f 77 38 a0 31 c7 33 41 35 58 a9 31 ab
       0.49 0.10956 0.558 0.1758 0.243 0.3284 -0.04175 -0.05618
000160 aa b0 01 38 e9 37 06 2d eb 2f ab 34 a1 2d 19 a9
       -0.1458 0.5005 0.4944 0.0785 0.1237 0.2917 0.08795 -0.03983
000170 40 b1 a7 35 cc 38 2f 33 21 b8 8b 38 ac ac 38 b6
       -0.1641 0.3533 0.5996 0.2245 -0.516 0.568 -0.073 -0.3887
000180 4f 38 a1 b6 e6 30 ad 38 76 b6 9f b6 c7 35 e6 37
       0.5386 -0.4143 0.1531 0.5845 -0.4038 -0.4138 0.361 0.4937
000190 0e 34 2a 38 1c 38 28 38 67 1c 11 31 72 28 66 31
       0.2534 0.5205 0.5137 0.5195 0.0043 0.1583 0.03473 0.1687
0001a0 10 b7 3c 33 51 38 bc 36 dc 34 1d 38 92 ab 55 2e
       -0.4414 0.2261 0.5396 0.421 0.3037 0.514 -0.05914 0.09894
0001b0 8e b2 b7 36 83 a6 e6 b3 df b2 9e 2b ca b3 9e b1
       -0.2048 0.4197 -0.02544 -0.2468 -0.2147 0.0595 -0.2434 -0.1755
0001c0 8f b2 9b b7 a6 31 9d 33 da 33 ea af 25 b3 6e 34
       -0.205 -0.4753 0.1765 0.2379 0.2454 -0.12366 -0.2233 0.2769
0001d0 8b 2f d6 b4 96 b0 83 37 b3 b8 bf b2 86 b6 88 ac
       0.11786 -0.3022 -0.1433 0.4695 -0.5874 -0.2108 -0.4077 -0.0708
0001e0 c0 2e e5 a9 1f 34 f7 35 af 29 3a b0 f7 a8 48 35
       0.10547 -0.04605 0.2576 0.3728 0.0444 -0.1321 -0.0388 0.33
0001f0 19 b5 8a b4 a2 b2 c9 ab 2c 32 81 9c be 35 e8 34
       -0.3186 -0.2837 -0.2073 -0.06082 0.1929 -0.0044 0.359 0.3066

arith.constant7 f2 [16, 16]
000000 3e b5 a7 33 58 33 06 32 74 af 59 35 a7 b3 6c b8
       -0.3276 0.2391 0.2295 0.1882 -0.11646 0.3342 -0.2391 -0.5527
000010 9c b5 fe ae 7a a9 0c b5 4f 37 48 b8 62 33 a3 96
       -0.3506 -0.10925 -0.0428 -0.3154 0.4568 -0.535 0.2307 -0.00162
000020 db 33 f8 b7 6d b6 ba b6 20 b7 51 b4 68 34 ce 36
       0.2455 -0.498 -0.4016 -0.4204 -0.4453 -0.2698 0.2754 0.4253
000030 6a 36 2b b4 5c b6 66 b5 1a 2b 91 37 3a af 91 b4
       0.401 -0.2605 -0.3975 -0.3374 0.05548 0.473 -0.1129 -0.2854
000040 35 2f 69 31 fb b3 bb b8 71 33 7d 30 d2 30 15 b5
       0.1126 0.1691 -0.2494 -0.5913 0.2325 0.1403 0.1506 -0.3176
000050 57 23 d1 28 3d 25 30 35 02 35 8d b3 0a 36 62 b3
       0.014336 0.03763 0.02046 0.3242 0.313 -0.236 0.3774 -0.2307
000060 b8 b0 82 34 8f 32 29 2e c3 34 60 35 1d 33 97 2f
       -0.1475 0.2817 0.205 0.09625 0.2976 0.336 0.2223 0.1186
000070 ec b6 da b2 3a a9 f3 a9 af b3 32 af 0d b3 5a b2
       -0.4326 -0.2141 -0.04083 -0.04648 -0.2401 -0.1124 -0.2203 -0.1985
000080 a5 34 fb 2e 0d b2 4d ac 6f 32 d3 33 c7 b1 12 31
       0.2903 0.1091 -0.1891 -0.0672 0.201 0.2445 -0.1805 0.1584
000090 10 ae 01 38 2b b2 af 36 b2 28 8d 34 85 b0 8b a5
       -0.0947 0.5005 -0.1927 0.4177 0.03668 0.2844 -0.1412 -0.02165
0000a0 8c 37 d6 af ec 36 57 36 10 b7 3b 37 7d b8 7f 29
       0.4717 -0.12244 0.4326 0.3962 -0.4414 0.452 -0.561 0.04294
0000b0 51 b2 83 b8 06 1c d8 b4 15 b3 9a 31 2d b7 09 b5
       -0.1974 -0.564 0.00393 -0.3027 -0.2213 0.175 -0.4485 -0.3147
0000c0 09 b8 67 b6 ec af b6 b5 e7 b8 b3 b7 86 38 76 2f
       -0.5044 -0.4001 -0.1238 -0.357 -0.613 -0.4812 0.5654 0.1166
0000d0 d2 32 33 36 68 b5 7d b2 04 b7 67 b7 3d b5 b0 b0
       0.2131 0.3875 -0.338 -0.2028 -0.4385 -0.4626 -0.3274 -0.1465
0000e0 97 37 5b b5 85 a8 c1 b2 7b b5 8e b8 ab aa 3f 38
       0.4744 -0.3347 -0.0353 -0.211 -0.3425 -0.5693 -0.0521 0.531
0000f0 08 38 57 38 59 b5 9c b7 e4 b3 91 b8 ec 35 fb b5
       0.504 0.5425 -0.3342 -0.4756 -0.2466 -0.571 0.37 -0.3738
000100 b1 33 d9 b3 6a 26 c4 a6 0b ae cd 9d 68 b0 9a b7
       0.2404 -0.2452 0.02505 -0.02643 -0.0944 -0.005665 -0.1377 -0.475
000110 05 b2 6a 35 57 b8 9e b2 0c b7 c2 36 7c 26 7c b2
       -0.1881 0.3384 -0.5425 -0.2068 -0.4404 0.4224 0.02533 -0.2026
000120 b4 31 4c b5 cc 36 ed 97 d1 20 72 b4 47 33 1d 32
       0.1782 -0.331 0.4248 -0.001935 0.00941 -0.2778 0.2274 0.191
000130 b4 31 b1 29 4c 31 15 36 5b 38 75 b5 5a a8 ee ab
       0.1782 0.04446 0.1655 0.3801 0.5444 -0.341 -0.034 -0.06195
000140 56 b8 8f 35 fe 33 57 b4 3a 30 ad 24 3e 31 f3 b3
       -0.542 0.3474 0.2498 -0.2712 0.1321 0.01826 0.1638 -0.2484
000150 e0 b7 68 ae f0 aa 14 b2 f2 34 ee 28 62 38 a0 b3
       -0.4922 -0.1001 -0.0542 -0.19 0.309 0.0385 0.548 -0.2383
000160 15 37 ff ac e3 a6 8a b4 1a 31 13 35 6c b5 3f 2d
       0.4426 -0.07806 -0.0269 -0.2837 0.1594 0.3171 -0.3389 0.082
000170 73 b6 97 ab d0 b8 1e 32 69 34 13 b5 4a 36 4e 36
       -0.403 -0.0593 -0.6016 0.1912 0.2756 -0.3171 0.393 0.394
000180 5c 33 81 36 1a b1 07 b0 a8 19 93 b0 71 36 89 b0
       0.23 0.4065 -0.1594 -0.1259 0.002762 -0.143 0.4026 -0.1417
000190 e0 36 d2 31 3e 32 04 b8 cb 2b 15 b8 41 b8 03 b4
       0.4297 0.1819 0.1951 -0.502 0.06088 -0.5103 -0.5317 -0.2507
0001a0 d2 b5 a8 b5 63 ae af b6 07 36 49 31 ac a1 59 b2
       -0.3638 -0.3535 -0.0998 -0.4177 0.3767 0.1652 -0.01108 -0.1984
0001b0 cf 31 5a 33 71 35 1b af 91 b3 2e 36 e6 b6 b7 b1
       0.1815 0.2297 0.34 -0.111 -0.2365 0.3862 -0.4312 -0.1786
0001c0 b9 b3 f3 2f 0b b7 44 a8 4b 9f 1d b8 fe 2f 88 b8
       -0.2413 0.1242 -0.4402 -0.03333 -0.007122 -0.514 0.1249 -0.5664
0001d0 f3 b8 a7 b8 0b 30 b4 35 fb 35 c1 a9 9f b8 45 31
       -0.6187 -0.5815 0.1263 0.3564 0.3738 -0.04495 -0.5776 0.1647
0001e0 06 af ed a7 58 26 41 b4 ec 30 4d 2e d8 a5 8e b0
       -0.10974 -0.03096 0.02478 -0.2659 0.1538 0.09845 -0.02283 -0.1423
0001f0 0f b8 0d b4 00 38 6f 36 19 b3 3e b4 13 b8 1d b1
       -0.5073 -0.2532 0.5 0.402 -0.2218 -0.2651 -0.5093 -0.1598
