train-model/intent_model_full_integer.tflite (tflite, 21240 bytes, 3 tensors)

tfl.pseudo_qconst1 i1 [16, 16]
000000 b5 37 35 2b e5 4d c9 81 af e7 f6 b8 69 85 35 00
       -75 55 53 43 -27 77 -55 -127 -81 -25 -10 -72 105 -123 53 0
000010 3f 81 9a 95 8e bb 46 6c 66 be 9b aa 0e 79 e3 b7
       63 -127 -102 -107 -114 -69 70 108 102 -66 -101 -86 14 121 -29 -73
000020 18 24 ca 81 32 1e 20 bc 03 08 04 46 43 cd 51 ce
       24 36 -54 -127 50 30 32 -68 3 8 4 70 67 -51 81 -50
000030 d5 53 3c 1c 57 63 41 23 81 c1 f4 f2 ba df bf c6
       -43 83 60 28 87 99 65 35 -127 -63 -12 -14 -70 -33 -65 -58
000040 4a 1c d0 ef 33 3e d2 28 e8 7f cf 6a 09 48 dc fb
       74 28 -48 -17 51 62 -46 40 -24 127 -49 106 9 72 -36 -5
000050 6a e4 61 59 9d 66 82 0a d4 81 01 bc ce 27 9b b9
       106 -28 97 89 -99 102 -126 10 -44 -127 1 -68 -50 39 -101 -71
000060 97 ad e6 b6 81 9c 75 18 2c 50 ba d6 a5 a0 bc e2
       -105 -83 -26 -74 -127 -100 117 24 44 80 -70 -42 -91 -96 -68 -30
000070 6a b6 f8 d1 b4 81 f4 76 70 79 b6 96 c9 81 52 ad
       106 -74 -8 -47 -76 -127 -12 118 112 121 -74 -106 -55 -127 82 -83
000080 38 c7 06 fa ea ff e0 91 d4 4f 81 d0 99 63 06 d1
       56 -57 6 -6 -22 -1 -32 -111 -44 79 -127 -48 -103 99 6 -47
000090 2a b3 63 00 02 bf 35 2d 2a 0a 27 59 7f b0 f8 f2
       42 -77 99 0 2 -65 53 45 42 10 39 89 127 -80 -8 -14
0000a0 82 51 3a c1 1f 04 26 c6 8e e9 f3 d4 48 09 7f c9
       -126 81 58 -63 31 4 38 -58 -114 -23 -13 -44 72 9 127 -55
0000b0 5d f0 fa c4 22 43 b8 11 ab f3 81 28 3a bd 53 53
       93 -16 -6 -60 34 67 -72 17 -85 -13 -127 40 58 -67 83 83
0000c0 37 61 da e2 01 de 60 de 67 2b 2f 88 0f 86 81 c4
       55 97 -38 -30 1 -34 96 -34 103 43 47 -120 15 -122 -127 -60
0000d0 95 98 e3 85 6f 31 fd c6 35 44 64 df ba 72 81 cb
       -107 -104 -29 -123 111 49 -3 -58 53 68 100 -33 -70 114 -127 -53
0000e0 ce 19 a6 f9 ff 96 1a 8c 81 89 1a 49 4d f7 89 22
       -50 25 -90 -7 -1 -106 26 -116 -127 -119 26 73 77 -9 -119 34
0000f0 e5 f8 06 be 26 19 fa dd 82 c1 7d 64 c9 be 81 d8
       -27 -8 6 -66 38 25 -6 -35 -126 -63 125 100 -55 -66 -127 -40

tfl.pseudo_qconst3 i1 [16, 16]
000000 81 48 a9 c6 b0 9a 4e b3 99 70 b4 04 da b4 a6 aa
       -127 72 -87 -58 -80 -102 78 -77 -103 112 -76 4 -38 -76 -90 -86
000010 22 6e da 3c 81 e4 f3 b0 5c a9 55 5a b4 00 d3 57
       34 110 -38 60 -127 -28 -13 -80 92 -87 85 90 -76 0 -45 87
000020 aa 8b fd 06 c2 4b 21 0e 17 3a 42 62 81 bc b6 2b
       -86 -117 -3 6 -62 75 33 14 23 58 66 98 -127 -68 -74 43
000030 9e 9e 04 b5 af 3d ef 03 f9 41 f4 81 8f eb 88 96
       -98 -98 4 -75 -81 61 -17 3 -7 65 -12 -127 -113 -21 -120 -106
000040 6c 53 4c 7e 84 39 e9 ff 50 99 7f 5e c5 7a cb aa
       108 83 76 126 -124 57 -23 -1 80 -103 127 94 -59 122 -53 -86
000050 ed 12 a8 04 ad 2a 40 1e d6 ef 4f 0e 81 59 97 c5
       -19 18 -88 4 -83 42 64 30 -42 -17 79 14 -127 89 -105 -59
000060 7f 17 f2 31 41 44 4d 3f 6f 89 9c 43 4c ac 24 e1
       127 23 -14 49 65 68 77 63 111 -119 -100 67 76 -84 36 -31
000070 b8 09 cc 93 62 b7 a9 68 07 d2 ff a7 7f 83 e5 4b
       -72 9 -52 -109 98 -73 -87 104 7 -46 -1 -89 127 -125 -27 75
000080 e3 26 fd 81 4e ae 32 54 19 8e c1 9e 66 ae f1 25
       -29 38 -3 -127 78 -82 50 84 25 -114 -63 -98 102 -82 -15 37
000090 49 49 27 05 3d 6e 17 e9 d6 9b 0a da 51 a9 d3 7f
       73 73 39 5 61 110 23 -23 -42 -101 10 -38 81 -87 -45 127
0000a0 7f 71 d9 23 1c 48 bb e7 6e 19 7d 27 36 4a f7 f3
       127 113 -39 35 28 72 -69 -25 110 25 125 39 54 74 -9 -13
0000b0 e1 6a 69 11 1a 3e 13 f8 dd 4b 7f 30 93 78 f1 ae
       -31 106 105 17 26 62 19 -8 -35 75 127 48 -109 120 -15 -82
0000c0 75 a6 21 7f a8 a6 4e 6b 37 71 70 71 01 22 08 25
       117 -90 33 127 -88 -90 78 107 55 113 112 113 1 34 8 37
0000d0 98 35 7f 63 47 79 f2 17 d0 63 fa c6 cd 0e c7 d7
       -104 53 127 99 71 121 -14 23 -48 99 -6 -58 -51 14 -57 -41
0000e0 d4 99 26 33 35 e5 d0 3c 19 bf e1 66 81 d2 a8 f1
       -44 -103 38 51 53 -27 -48 60 25 -65 -31 102 -127 -46 -88 -15
0000f0 24 f0 58 7f 0f d3 f3 70 93 9f b9 eb 42 ff 7a 68
       36 -16 88 127 15 -45 -13 112 -109 -97 -71 -21 66 -1 122 104

tfl.pseudo_qconst4 i1 [1000, 16] scale=0.0027784926 zero_point=-14
000000 f3 14 f7 ea ed fd 27 20 0f eb 00 fe fa dc ab f2
       0.0027784926 0.09446875 0.013892463 -0.022227941 -0.013892463 0.03056342 0.14726011 0.12781066 0.080576286 -0.019449448 0.038898896 0.03334191 0.022227941 -0.06112684 -0.19727297 0.0
000010 f9 fc f0 eb fa fd f1 01 ff 00 ee ee f2 f9 e2 f9
       0.019449448 0.027784927 -0.0055569853 -0.019449448 0.022227941 0.03056342 -0.0027784926 0.04167739 0.036120404 0.038898896 -0.011113971 -0.011113971 0.0 0.019449448 -0.044455882 0.019449448
000020 10 f0 f4 13 d9 dd fe 06 24 0d 07 12 cf 16 e6 e2
       0.08335478 -0.0055569853 0.0055569853 0.09169026 -0.069462314 -0.058348347 0.03334191 0.055569854 0.13892463 0.0750193 0.058348347 0.088911764 -0.09724724 0.100025736 -0.03334191 -0.044455882
000030 ef 02 4a 2c 13 10 f3 fc e9 33 27 f0 d8 49 ef a6
       -0.008335478 0.044455882 0.24450736 0.16115257 0.09169026 0.08335478 0.0027784926 0.027784927 -0.025006434 0.18060201 0.14726011 -0.0055569853 -0.07224081 0.24172886 -0.008335478 -0.21116544
000040 7f f4 16 73 de cb 0e 42 5d 40 77 51 e4 54 24 df
       0.39176747 0.0055569853 0.100025736 0.35842556 -0.055569854 -0.108361214 0.07779779 0.22227941 0.2972987 0.21672243 0.36953953 0.26395682 -0.038898896 0.2722923 0.13892463 -0.05279136
000050 13 07 ce 18 e4 27 aa cc 3c d9 18 0c bf 29 fd c8
       0.09169026 0.058348347 -0.100025736 0.10558272 -0.038898896 0.14726011 -0.20005147 -0.10558272 0.20560846 -0.069462314 0.10558272 0.07224081 -0.14170313 0.1528171 0.03056342 -0.11669669
000060 49 b7 45 5c bc 15 fd 3e 65 ed 66 60 a0 f9 bf f9
       0.24172886 -0.16393107 0.23061489 0.29452023 -0.1500386 0.09724724 0.03056342 0.21116544 0.31952664 -0.013892463 0.32230514 0.3056342 -0.2278364 0.019449448 -0.14170313 0.019449448
000070 fe d1 02 2f c6 f8 f8 0c fb f8 0a 33 bf 14 b8 f4
       0.03334191 -0.09169026 0.044455882 0.16948806 -0.12225368 0.016670955 0.016670955 0.07224081 0.025006434 0.016670955 0.06668382 0.18060201 -0.14170313 0.09446875 -0.16115257 0.0055569853
000080 02 de d5 1b b1 ff 09 ed 02 16 51 23 8b 23 ae d6
       0.044455882 -0.055569854 -0.080576286 0.1139182 -0.18060201 0.036120404 0.06390533 -0.013892463 0.044455882 0.100025736 0.26395682 0.13614614 -0.28618473 0.13614614 -0.1889375 -0.07779779
000090 aa 2e 3b 54 b5 e4 51 c4 82 f8 38 17 91 4a 80 ca
       -0.20005147 0.16670956 0.20282996 0.2722923 -0.16948806 -0.038898896 0.26395682 -0.12781066 -0.31119117 0.016670955 0.19449449 0.10280423 -0.2695138 0.24450736 -0.31674817 -0.11113971
0000a0 02 eb e2 84 63 c6 ea 35 ef 89 9f 9b 4a 97 18 46
       0.044455882 -0.019449448 -0.044455882 -0.3056342 0.31396967 -0.12225368 -0.022227941 0.186159 -0.008335478 -0.29174173 -0.23061489 -0.24172886 0.24450736 -0.25284284 0.10558272 0.23339339
0000b0 1b 47 e4 43 a3 29 f8 ee 62 90 58 53 9a 5c 90 a0
       0.1139182 0.23617187 -0.038898896 0.2250579 -0.21950091 0.1528171 0.016670955 -0.011113971 0.31119117 -0.2722923 0.28340626 0.2695138 -0.24450736 0.29452023 -0.2722923 -0.2278364
0000c0 1f d3 19 36 ea 08 f1 3a 37 eb 36 49 be f2 c4 e8
       0.12503217 -0.08613327 0.108361214 0.1889375 -0.022227941 0.06112684 -0.0027784926 0.20005147 0.19171599 -0.019449448 0.1889375 0.24172886 -0.14448161 0.0 -0.12781066 -0.027784927
0000d0 92 bf d6 c4 e4 24 fb 97 9a 34 b5 ac 9d d0 b5 b9
       -0.2667353 -0.14170313 -0.07779779 -0.12781066 -0.038898896 0.13892463 0.025006434 -0.25284284 -0.24450736 0.18338051 -0.16948806 -0.19449449 -0.23617187 -0.09446875 -0.16948806 -0.15837409
0000e0 dd 99 d5 e5 fa ac 01 38 f6 14 df e1 11 c5 0a 05
       -0.058348347 -0.24728584 -0.080576286 -0.036120404 0.022227941 -0.19449449 0.04167739 0.19449449 0.011113971 0.09446875 -0.05279136 -0.047234375 0.08613327 -0.12503217 0.06668382 0.05279136
0000f0 fe ce e7 9d 4b e1 e0 25 ec 8c a5 a7 58 92 08 47
       0.03334191 -0.100025736 -0.03056342 -0.23617187 0.24728584 -0.047234375 -0.050012868 0.14170313 -0.016670955 -0.28340626 -0.21394393 -0.20838694 0.28340626 -0.2667353 0.06112684 0.23617187
